gcn_model.pth (torch, 315676 bytes, 6 tensors)

conv1.bias f4 [256]
0	0x3c17ab26	0.009257114
1	0xbb82108b	-0.003969257
2	0x3c584e9c	0.013202336
3	0xbc2f1eac	-0.010688465
4	0x3c432080	0.011909604
5	0xbc116ed3	-0.00887652
6	0x3c3f7d29	0.011687555
7	0xbc10c45c	-0.008835878
8	0x3bdc9c10	0.0067324713
9	0x3ba2e7f3	0.004971498
10	0xbbf56be3	-0.0074896677
11	0x3c07b6fb	0.008283372
12	0x390b2d54	0.00013272959
13	0x3b52a569	0.003214205
14	0x3c1b7955	0.009489377
15	0x3b08d062	0.002087616
16	0xbb31b19b	-0.0027113918
17	0x3b977de7	0.004623163
18	0x3a9bdf38	0.0011892086
19	0x3c131153	0.008976298
20	0x3c0d497c	0.008623477
21	0xb916ebe7	-0.00014392995
22	0xbc2ef75b	-0.010679091
23	0x3b9e5b1f	0.00483264
24	0x3c4662b5	0.0121084945
25	0x3c25896f	0.0101035675
26	0x3c4b61ec	0.012413483
27	0x3ae91c52	0.0017784929
28	0x3c522afe	0.012827633
29	0xbb3517ba	-0.002763255
30	0x3c01a788	0.007913478
31	0x3c3155d2	0.010823684
32	0x3c34e0a7	0.011039889
33	0xba9298fe	-0.0011184511
34	0x3d108ce7	0.035290625
35	0x3b2f9868	0.0026793722
36	0x3c84e698	0.016223237
37	0x3c43305c	0.011913385
38	0x395bc8c9	0.00020960266
39	0xbcb03e67	-0.02151413
40	0xbc0d2358	-0.008614384
41	0x3b8958a0	0.004191473
42	0x3beadf07	0.0071677
43	0x3cdc8386	0.026918184
44	0x3c5b7348	0.013394184
45	0x3c717374	0.014736999
46	0x3c2dd3e1	0.010609598
47	0x3be3f237	0.0069563645
48	0x3c125a2c	0.008932631
49	0xbc0df7b7	-0.008665017
50	0xbc1af65b	-0.00945815
51	0x3c047f89	0.008087047
52	0x3c7fed85	0.015620594
53	0xbc12cf2a	-0.008960525
54	0x3cdecb5c	0.027196579
55	0xbc7f08ed	-0.015566093
56	0x3a803cf2	0.0009783788
57	0x3c1bdb77	0.009512774
58	0x3c1ccd3e	0.009570418
59	0x3bb5277e	0.0055283895
60	0x3c2b0a80	0.010439515
61	0xbc00776d	-0.007840973
62	0x3c1e2cc9	0.009654232
63	0x3bc923e4	0.0061383117
64	0x3c33a494	0.010964531
65	0xbbb36ad7	-0.005475383
66	0x3c9dff1f	0.01928669
67	0x3b21fca6	0.002471724
68	0x3c10a635	0.008828689
69	0x3d0e31a4	0.03471531
70	0x3c968008	0.018371597
71	0x3c7288d2	0.014803128
72	0x3c3c4fe5	0.011493658
73	0x3bdae879	0.006680545
74	0x3c4c06f2	0.012452828
75	0xbc096bfa	-0.00838756
76	0xbc97bc83	-0.018522507
77	0x3be1f206	0.0068953065
78	0x3c523cc6	0.012831872
79	0xbbbe7f4e	-0.0058135157
80	0xbc23250d	-0.009957564
81	0x3a6e9082	0.0009100513
82	0x3b545b72	0.0032403138
83	0x3c3be082	0.011467101
84	0x3c36f80e	0.011167539
85	0x3c446a76	0.011988273
86	0x3c268bc5	0.01016516
87	0x3c91f51f	0.017817078
88	0x3c968d9c	0.018378071
89	0x3ada88d4	0.0016672858
90	0x3cc8acf9	0.024496542
91	0xbc186980	-0.009302497
92	0x3beb2661	0.007176206
93	0x3beec16d	0.0072862417
94	0x3bf25e90	0.0073965266
95	0xbcbd22c4	-0.023087867
96	0xbc237f0f	-0.009979024
97	0x3c2b7d82	0.010466935
98	0x3ce4fa9e	0.027951535
99	0x3c0cfb8c	0.008604895
100	0x3be228b1	0.0069018234
101	0x3c945129	0.018105106
102	0x3c02d892	0.007986205
103	0xbc218ad9	-0.009859764
104	0x3c196a03	0.009363654
105	0x3ae08d82	0.0017132016
106	0x3c15592b	0.009115498
107	0xbc9da492	-0.019243512
108	0xbbff8514	-0.0077978466
109	0x3c0a0ccd	0.0084259035
110	0x3ca4314b	0.020043036
111	0xbb879d25	-0.004138606
112	0x3bc13ae2	0.005896912
113	0x3bec21bf	0.0072061713
114	0x3bdc29df	0.0067188586
115	0x3b87f5c3	0.00414917
116	0x3cb13124	0.021629877
117	0xba205998	-0.0006116866
118	0xbbc84edc	-0.0061129164
119	0x3c06390b	0.008192311
120	0x3b9ee7af	0.004849396
121	0x3c6bd142	0.014393153
122	0xbc438204	-0.011932854
123	0x3bc9c704	0.0061577577
124	0xbc7705fa	-0.0150771085
125	0x3c8de7f8	0.017322525
126	0x3bbdb726	0.0057896553
127	0x3be53847	0.006995234
128	0x3b2a70bf	0.0026007143
129	0x3bfa8c15	0.0076460936
130	0xbb97b09e	-0.0046292087
131	0xbc06d115	-0.00822856
132	0xbc038eee	-0.008029683
133	0x3c8fb56f	0.017542569
134	0x3bee701e	0.007276549
135	0x3bc5e113	0.006038794
136	0x3bff0210	0.0077822283
137	0x3c173711	0.009229437
138	0x3be8b9c1	0.0071022217
139	0x3b8907e9	0.004181851
140	0x3c2b9807	0.010473258
141	0x3d180dd0	0.037122548
142	0xbbaaa046	-0.0052070944
143	0xba9034de	-0.0011002084
144	0xbb5e3be6	-0.0033910214
145	0xbc2ca758	-0.010537945
146	0x3bfae846	0.0076570837
147	0xbaf1575f	-0.001841288
148	0x3b1a9c0d	0.0023591549
149	0x3caf6456	0.021410149
150	0xb89b3cd9	-7.40231e-05
151	0x3c68857e	0.014191983
152	0xbb8998db	-0.00419913
153	0xbb3f6f38	-0.0029210579
154	0x3bd6fdbf	0.0065610106
155	0xbbfe05cc	-0.007752156
156	0x3c7e7325	0.015530382
157	0x3c8b4b96	0.017003816
158	0x3c004ccb	0.007830809
159	0x3bc02a44	0.0058644135
160	0x3d104b1a	0.035227872
161	0xbbd5f542	-0.006529481
162	0x3b5e8617	0.0033954435
163	0xbc08dd35	-0.008353521
164	0x3c499956	0.012304625
165	0x3c9664f3	0.018358683
166	0xbc0aa811	-0.008462922
167	0x3ba9340d	0.0051636756
168	0xbbc2e4a2	-0.0059476653
169	0x3c2a4e3c	0.010394629
170	0xbb6f1822	-0.003648289
171	0x3c57524f	0.0131421825
172	0xba27547d	-0.0006383134
173	0x3bade712	0.0053070867
174	0x3ae966fc	0.0017807181
175	0x3aedc178	0.0018139323
176	0xbb55077c	-0.0032505682
177	0xb9f0eb48	-0.00045951665
178	0x3b21c4c7	0.0024683939
179	0xbb51ec02	-0.003203154
180	0x3c195316	0.009358188
181	0x3c7da96f	0.015482291
182	0xbb6656ac	-0.0035146875
183	0xbad1eb69	-0.0016015592
184	0xb9c917d8	-0.00038355472
185	0xbc271465	-0.0101977335
186	0x3c2489a2	0.01004258
187	0xbbdd8b1c	-0.006760968
188	0x3bd0da6b	0.0063736937
189	0xbc67632c	-0.0141227655
190	0x3b7bfd04	0.003845037
191	0x3be916e4	0.0071133245
192	0x3c16c11e	0.009201316
193	0xbc4004f1	-0.011719928
194	0x3b76cc73	0.0037658482
195	0x3bd9e37a	0.006649432
196	0x3b82b64f	0.003989018
197	0xbbade407	-0.005306724
198	0x3b77d0f8	0.0037813764
199	0x3c389781	0.01126659
200	0xbc1b8250	-0.009491518
201	0x3b8da1ec	0.004322281
202	0x3b84f432	0.0040574307
203	0x3c55a8b5	0.013040711
204	0x3bfe7254	0.007765094
205	0x3ca69b30	0.020337671
206	0xbb7b8d0e	-0.0038383636
207	0x3c55e4b5	0.013055016
208	0xbb925d09	-0.004466657
209	0x3c1a7433	0.009427118
210	0xbb3163ad	-0.0027067468
211	0x3c25e204	0.010124687
212	0x3bf3b940	0.007437855
213	0x3c1c6cbf	0.009547411
214	0x3c0870bb	0.008327658
215	0x3c1e5e56	0.009666046
216	0x3b98faf8	0.0046685897
217	0x3c2476d3	0.0100380955
218	0xbbb29eaa	-0.005451043
219	0x3c0d1945	0.008611982
220	0x3bb2a1ab	0.005451401
221	0x3a3d5373	0.0007222213
222	0x3c052535	0.008126547
223	0xbc2f7f94	-0.010711569
224	0x3c851c31	0.016248794
225	0xbc86d94a	-0.016461033
226	0x3c00825a	0.007843578
227	0x3b0fdaac	0.0021950407
228	0x3b69ce1a	0.0035675825
229	0x3c19ed61	0.009394974
230	0x3bb4fea5	0.00552352
231	0x3be5cffb	0.0070133186
232	0x3c477fc4	0.012176458
233	0x3bd37629	0.006453295
234	0x3b938684	0.0045021195
235	0x3c65bd72	0.014022218
236	0x3c858adc	0.016301565
237	0x3ba7c476	0.0051198555
238	0x3bbc35df	0.0057437266
239	0xbbf2d59e	-0.007410719
240	0x3c89c153	0.016815817
241	0xbbe316c5	-0.0069302046
242	0x3ca178a1	0.01971084
243	0xb98db8f1	-0.00027031408
244	0x3c0b086c	0.008485895
245	0x3c2c4b9a	0.010516072
246	0x3c83969b	0.016063025
247	0xbc55763b	-0.013028677
248	0x3c417c7d	0.0118094655
249	0x3aec6c53	0.0018037654
250	0x3c72d0c6	0.014820283
251	0x3be7892e	0.0070659136
252	0x3ba858b3	0.005137527
253	0x3b421c09	0.002961876
254	0x3bc707ab	0.006073912
255	0x3c2cd911	0.0105498

conv1.lin.weight f4 [256, 47]
0	0x3b6f17cc	0.003648269
1	0xbd0cb2a8	-0.034350067
2	0x3d1c04f6	0.03809067
3	0x3def4a3a	0.116840795
4	0x3d69a382	0.0570407
5	0xbcbde8cb	-0.023182293
6	0xbd866fef	-0.065643184
7	0x3e106606	0.14101419
8	0x3d5a741e	0.053333394
9	0xbd67d980	-0.05660391
10	0x3e181cc9	0.1485473
11	0x3de3eaa4	0.111287385
12	0xbde24e8e	-0.11050139
13	0xbdb6e0d7	-0.089296035
14	0x3da52f4f	0.08065664
15	0x3d8f8e72	0.07009591
16	0x3dd308f7	0.10304444
17	0xbdb7ce83	-0.08974936
18	0x3dc952e1	0.09830261
19	0xbd37826a	-0.044802107
20	0x3dfa1f05	0.12212948
21	0xbd685be3	-0.056728255
22	0x3c6bad4a	0.014384577
23	0x3ad6a360	0.0016375594
24	0x3c63f362	0.013913007
25	0xbda44d70	-0.080225825
26	0xbd28c8a4	-0.04120697
27	0x3ddb32cb	0.10703047
28	0xbe086c30	-0.1332252
29	0xbda0621c	-0.07831213
30	0xbdec3dc2	-0.11535217
31	0x3e0fe048	0.140504
32	0xbd5f78a2	-0.054558404
33	0x3ca142c5	0.019685159
34	0x3d97523f	0.07388734
35	0x3d6c74ed	0.057728697
36	0xbddf5b1a	-0.10906048
37	0xbdf0d9c3	-0.11760285
38	0xbda9e0c5	-0.082948245
39	0xbd40afc2	-0.047042616
40	0xbd92d251	-0.07169021
41	0xbbf7e80e	-0.007565505
42	0x3dcf9d8a	0.1013747
43	0x3b7ca404	0.003854991
44	0xbd909cef	-0.07061183
45	0x3e1c1202	0.15241244
46	0xbd91f8d5	-0.07127539
47	0xbca6e51d	-0.020372922
48	0x3da679e0	0.081287146
49	0x3d531f58	0.051543564
50	0xbd371019	-0.044693086
51	0x3b0152d8	0.0019733217
52	0xbcf19f73	-0.029494977
53	0x3c6ae79d	0.0143374475
54	0xbdd6a2c0	-0.10480261
55	0xbd92c14f	-0.07165777
56	0xbe0caa94	-0.13736945
57	0x3d3edb35	0.04659577
58	0x3d72d5ca	0.059285916
59	0xbdc6ef05	-0.09713558
60	0xbd881fd4	-0.06646696
61	0x3dd73c79	0.10509581
62	0xbdf02cb0	-0.117272735
63	0x3e035d7b	0.12828629
64	0x3dca17cb	0.098678194
65	0x3dd7dd21	0.10540224
66	0x3da79254	0.08182207
67	0x3dfe9e60	0.124325514
68	0xbda5b95d	-0.08091996
69	0x3d845fc4	0.06463578
70	0x3e0b9a36	0.13633046
71	0xbdf4bb7d	-0.11949823
72	0x3e010c43	0.12602334
73	0x3d16e71d	0.0368415
74	0xbb80b36a	-0.003927638
75	0x3e292cd0	0.16521001
76	0xbde81882	-0.113327995
77	0xbd458aae	-0.04822796
78	0x3d579c6c	0.05263941
79	0xbdad9d8d	-0.08477316
80	0x3dc6fe74	0.09716502
81	0xbd80d935	-0.06291429
82	0x3d84dac4	0.06487039
83	0xbe059df1	-0.13048531
84	0x3e08b494	0.13350135
85	0xbde6588c	-0.11247358
86	0x3d50b0a5	0.05094971
87	0xbe17b175	-0.14813788
88	0x3cda3740	0.026637673
89	0xbd22e0f3	-0.03976531
90	0xbd20d4f5	-0.03926559
91	0xbdc67654	-0.09690538
92	0x3d48b1c5	0.04899766
93	0xbda9ec42	-0.08297016
94	0x3c04ba58	0.008101068
95	0xbd60ca15	-0.05488022
96	0xbde5938d	-0.11209784
97	0x3e10debf	0.14147471
98	0xbd0e477c	-0.03473614
99	0xbd58b01a	-0.05290232
100	0x3ca69ed8	0.020339414
101	0xbda67111	-0.081270345
102	0xbb23b4fc	-0.0024979701
103	0x3c2d1c68	0.010565855
104	0xbd051f48	-0.032500535
105	0x3ddee7b5	0.10884038
106	0xbd70d7fc	-0.05879973
107	0xbbe7f56c	-0.007078817
108	0x3df16788	0.11787325
109	0xbdd71a35	-0.105030455
110	0x3bfa9a2b	0.007647773
111	0x3e1f2ad3	0.1554368
112	0x3d6652d0	0.05623132
113	0x3c8183a6	0.015809845
114	0x3dfa59dc	0.122241706
115	0xbceaca11	-0.028660806
116	0xbda25d62	-0.079279676
117	0xbba476bd	-0.0050190375
118	0x3c89b6cb	0.016810795
119	0x3d33f0d6	0.04393085
120	0xbdd31e42	-0.103085056
121	0x3d4f4f0d	0.050612498
122	0x3cc9ef29	0.024650173
123	0x3e012e0b	0.1261522
124	0x3de9cd3a	0.11416097
125	0x3e09fc69	0.13475193
126	0x3d4dbdf4	0.05022998
127	0x3dbebece	0.09313737
128	0xbdc58586	-0.09644608
129	0x3daccaac	0.08437094
130	0x3e00b27c	0.12568086
131	0x3d89e39e	0.06732868
132	0x3c9be31f	0.019029198
133	0xbd881979	-0.066454835
134	0xbbc275e3	-0.0059344633
135	0xbdae783f	-0.08519029
136	0x3d2bc236	0.04193326
137	0x3b6372ca	0.003470587
138	0x3c98d932	0.018658254
139	0x3c2a8402	0.01040745
140	0x3c4a1c11	0.012335793
141	0x3b8cd362	0.0042976597
142	0xbd0a0f5a	-0.033706047
143	0xbd0903c4	-0.033450857
144	0x3ccc6bba	0.024953712
145	0xbd0aec35	-0.03391667
146	0x3cb541ea	0.022126157
147	0xbcca4b63	-0.02469415
148	0x3d8c36eb	0.06846412
149	0x3da9e78b	0.082961164
150	0x3dfaa903	0.12239268
151	0xbd0bc7d2	-0.03412611
152	0xbd8184b9	-0.06324143
153	0xbd132638	-0.03592512
154	0xbddfe21a	-0.10931797
155	0x3cd6d103	0.026222711
156	0x3d9f390d	0.077745534
157	0x3b013f08	0.0019721407
158	0x3daba349	0.083807535
159	0x3d330674	0.043707326
160	0x3dba8c48	0.09108788
161	0xbe01878a	-0.1264936
162	0x3dfdc451	0.1239096
163	0x3c9a912a	0.018868048
164	0x3ccb58b4	0.02482257
165	0xbd08c759	-0.033393238
166	0xbbb94de1	-0.005655036
167	0x3e04f167	0.12982713
168	0xbd74e337	-0.059787
169	0xbde0694b	-0.10957583
170	0xbd95d626	-0.07316236
171	0xbc571835	-0.01312833
172	0x3d4300ef	0.047608312
173	0xbde180fb	-0.11010929
174	0xbe0d1fe7	-0.13781701
175	0x3d6d02f9	0.057864163
176	0x3dc14911	0.094377644
177	0x3d6f6d13	0.05845363
178	0x3db4cd40	0.08828211
179	0xbe1115d6	-0.14168486
180	0x3d1ae242	0.037813433
181	0x3c396a7d	0.011316893
182	0xbe0706f0	-0.1318624
183	0x3c4afa11	0.012388722
184	0x3d80a5a2	0.06281592
185	0xbc30d139	-0.01079207
186	0xbd0dae0d	-0.034589816
187	0x3c82b8f9	0.015957342
188	0xbe06b74e	-0.13155863
189	0xbdc878ad	-0.09788642
190	0x3d2fc56a	0.042912878
191	0x3dc16858	0.0944373
192	0x3dfceb73	0.12349596
193	0x3db0472a	0.086073235
194	0x3d8ce106	0.06878857
195	0x3d5a5bd3	0.053310227
196	0xbd835627	-0.06412917
197	0xbdd69121	-0.104769
198	0xbbc12fe9	-0.005895604
199	0xbde8ee51	-0.1137358
200	0x3da41f66	0.08013801
201	0x3cb6e8f9	0.022327887
202	0x3e050c95	0.12993081
203	0x3cd7499b	0.026280215
204	0xbe01f815	-0.12692292
205	0x3d00a639	0.031408522
206	0xbc107f5e	-0.008819429
207	0xbba9b269	-0.005178739
208	0xbd897359	-0.06711454
209	0x3d7fe364	0.062472716
210	0x3d974e01	0.07387925
211	0xbdbec784	-0.09315398
212	0x3dd40eb0	0.10354364
213	0x3c931a06	0.017956745
214	0xbcdc6886	-0.02690531
215	0xbd4b86d1	-0.049689118
216	0xbdc6b3a0	-0.097022295
217	0xbde1100a	-0.10989387
218	0x373adc8a	1.1137812e-05
219	0x3dbee4d8	0.09320992
220	0x3d930772	0.071791545
221	0x3d18121a	0.037126638
222	0xbd230acd	-0.039805222
223	0x3d504d76	0.050855123
224	0x3dcdafa8	0.100432694
225	0xbd9e4dd6	-0.0772969
226	0xbde99231	-0.11404837
227	0x3d632760	0.055457473
228	0xbdfb0cdf	-0.12258314
229	0x3d1fbb2c	0.03899686
230	0xbdafa5b4	-0.08576527
231	0xbd4e3861	-0.050346736
232	0x3daa6c87	0.08321481
233	0x3debccde	0.11513685
234	0x3d6e9b7e	0.058253758
235	0x3cffe903	0.031239038
236	0xbd1ceba4	-0.038310662
237	0x3d5bf7db	0.05370317
238	0x3cdf17fb	0.027233114
239	0xbd984734	-0.07435456
240	0x3cce6f7f	0.02519965
241	0xbd9e4bc3	-0.07729294
242	0x3dbfee7c	0.09371659
243	0xbda4c30a	-0.08045013
244	0xbd916637	-0.07099574
245	0xbde9ba89	-0.11412532
246	0xbe0687f1	-0.13137795
247	0xbc634ac3	-0.013872805
248	0xbdd4140a	-0.10355385
249	0x3db9bacf	0.09068834
250	0xbdf3b557	-0.11899822
251	0xbd3e4462	-0.046451934
252	0x3cc8ae85	0.02449728
253	0x3a2eb200	0.00066640973
254	0x3daa06cc	0.08302078
255	0xbe0fbd34	-0.14037019

conv2.bias f4 [128]
0	0xbbd7e16b	-0.006588151
1	0x3bc95680	0.006144345
2	0x3b5f10e0	0.0034037158
3	0xbaf7f7ce	-0.0018918456
4	0x3b96b9dd	0.0045997933
5	0xbb787e2d	-0.0037917004
6	0xbbf730d0	-0.0075436607
7	0xbc05a228	-0.008156337
8	0xbbccd1bc	-0.006250588
9	0xbc02ca45	-0.007982795
10	0xbbe63409	-0.007025246
11	0xbb83a123	-0.0040170117
12	0x3d2e90b6	0.042618476
13	0xbaf81848	-0.0018928135
14	0xbb00a41e	-0.0019629071
15	0xbbc462f3	-0.005993241
16	0xbb7016f0	-0.0036634766
17	0xbb457379	-0.0030128642
18	0xba679741	-0.0008834489
19	0xbbe2127d	-0.0068991766
20	0xbb743ee2	-0.0037268926
21	0xbc11c4cd	-0.008897019
22	0xbbcf1b9c	-0.00632043
23	0xbbfae623	-0.007656829
24	0x3d50811f	0.05090439
25	0x3d470986	0.048593067
26	0xbc095725	-0.008382593
27	0xbc007191	-0.007839576
28	0xbadb8e4e	-0.0016750784
29	0xbbbd25fc	-0.0057723504
30	0xbc00d3b1	-0.007862971
31	0x3d5563de	0.052097194
32	0xbbcd2d8f	-0.0062615345
33	0xbbd3bcf8	-0.006461736
34	0xbbe35c69	-0.0069385064
35	0x3b3332f7	0.002734361
36	0xbc1cf624	-0.009580169
37	0x3b37fe05	0.0028074991
38	0xbb31d697	-0.0027135962
39	0x3d4c981f	0.04994976
40	0xbc001d69	-0.007819512
41	0xbc413672	-0.011792766
42	0xbbb1ee4c	-0.0054300185
43	0xbbdf0c6c	-0.0068069007
44	0x3a8b839f	0.0010644085
45	0xb9c3142a	-0.00037208322
46	0x3d39c921	0.045357827
47	0xbc1a4e50	-0.009418085
48	0x3d3b8958	0.045785278
49	0xbaebd2fc	-0.0017991955
50	0xbb91dcff	-0.0044513936
51	0xbbd26702	-0.006420971
52	0xbc086642	-0.008325161
53	0xbc2a3b34	-0.010390092
54	0xbc004628	-0.007829227
55	0xbc1ab1d3	-0.009441811
56	0xbbc789eb	-0.006089439
57	0xba1849d8	-0.00058093434
58	0xbc0bfbd3	-0.008543926
59	0xbc30c25a	-0.0107885245
60	0xba879ea7	-0.0010346965
61	0xbc06399d	-0.008192447
62	0xbbb83930	-0.0056220517
63	0xbc03d2d8	-0.008045875
64	0xbbe0107a	-0.0068379017
65	0xbb64a5f6	-0.003488896
66	0xbc05e1d3	-0.0081715165
67	0xbc291104	-0.010318998
68	0xbbcfb84e	-0.0063391095
69	0xbbe9fd43	-0.007140787
70	0xbc0c020d	-0.008545411
71	0xbbe5e1cd	-0.007015443
72	0xbbbcae51	-0.005758085
73	0xbc0382de	-0.008026807
74	0xbbe737db	-0.007056219
75	0x3a8f2d2b	0.0010923495
76	0xba896e70	-0.0010485183
77	0x3b209474	0.0024502547
78	0x38901799	6.8708505e-05
79	0xbbf5e23b	-0.0075037754
80	0xbc355fe3	-0.011070224
81	0xbc02d25c	-0.007984724
82	0xbc07dc71	-0.008292303
83	0x3ca167fd	0.019702906
84	0x3b3f5ed9	0.002920082
85	0xbc0ce0ca	-0.008598516
86	0xbbdbb86c	-0.0067053344
87	0xbbba5cf1	-0.005687349
88	0xbc07c4de	-0.008286683
89	0xbb868aa4	-0.0041058827
90	0x3b08b8a1	0.0020862
91	0x3d3f0dd1	0.046644036
92	0xbbe7a36a	-0.007069041
93	0xbb0f3998	-0.0021854397
94	0xbc07be06	-0.008285051
95	0xbc0d5c65	-0.008627986
96	0xbb8f96bd	-0.004381983
97	0xba3a4b3f	-0.00071065495
98	0xbbc12c15	-0.0058951476
99	0x3c3450ce	0.011005593
100	0xbbeb801c	-0.0071869027
101	0x3bb843f3	0.0056233346
102	0xbaf74270	-0.0018864404
103	0x3c353991	0.011061088
104	0xbc0f725d	-0.008755294
105	0xbc04f747	-0.008115596
106	0xbc0bfc80	-0.008544087
107	0xbc0447fa	-0.008073801
108	0xbc456b3e	-0.012049494
109	0xbb88dd84	-0.0041767973
110	0x3aa4c8c8	0.0012572045
111	0xbc016b11	-0.007899062
112	0xbc0dd58b	-0.00865687
113	0xbb4acf70	-0.0030946396
114	0xbc3d98d8	-0.011572085
115	0xbbf8a159	-0.0075875935
116	0x3d28b874	0.041191533
117	0xbb63a237	-0.0034734139
118	0x37071b25	8.052947e-06
119	0xba9ba484	-0.0011874591
120	0xbc1886d7	-0.009309492
121	0xba9f6c4c	-0.0012163012
122	0xbbcbd9f0	-0.0062210485
123	0x3d2b60dd	0.041840423
124	0xbaf2c424	-0.0018521589
125	0x3ca263e2	0.019823018
126	0xbb5e7536	-0.0033944375
127	0xbb70006a	-0.003662134

conv2.lin.weight f4 [128, 256]
0	0x3d9e24d7	0.077218704
1	0x3d165050	0.036697686
2	0xbcf96bb9	-0.030446874
3	0x3dc21c6d	0.09478078
4	0x3bfbe729	0.0076874685
5	0xbdc56a33	-0.096393965
6	0xbcb15897	-0.021648688
7	0xbd526386	-0.051364444
8	0x3c42a9e9	0.01188133
9	0x3d5e39ff	0.054254528
10	0xbdd45541	-0.103678234
11	0x3d4d7bfb	0.050167065
12	0xbd2fdb0d	-0.042933512
13	0xbc2275a7	-0.009915746
14	0x3d950a6e	0.0727738
15	0xbda67016	-0.081268474
16	0x3dee1d84	0.116267234
17	0x3df1fdd2	0.118159905
18	0xbc8ebcee	-0.017424073
19	0xbd6e1982	-0.058129795
20	0x3d76ac60	0.060222983
21	0x3dd90ad2	0.10597767
22	0xbddb4541	-0.107065685
23	0x3e018f67	0.1265236
24	0xbd05ca94	-0.032663897
25	0xbd95f9b4	-0.07323018
26	0x3c315006	0.010822302
27	0x3de52180	0.1118803
28	0x3d9f1c4b	0.07769068
29	0x3d4e6ded	0.050397802
30	0xbdac2ce9	-0.084070034
31	0x3e055964	0.13022381
32	0x3cd39f8c	0.025832914
33	0x3cc8c9fd	0.024510378
34	0x3e0d528c	0.1380102
35	0xbdec9ea1	-0.115536936
36	0xbd560eb3	-0.052260112
37	0x3ce19307	0.027535928
38	0x3d5700c4	0.052490965
39	0x3c64b985	0.013960247
40	0xbdc6f069	-0.09713823
41	0x3c411475	0.0117846625
42	0x3cfab809	0.030605333
43	0x3e1ea08d	0.15490933
44	0xbde4389f	-0.11143612
45	0x3d3deb9a	0.046367265
46	0xbd8a3451	-0.0674826
47	0xbd652849	-0.055946622
48	0xbcae2835	-0.021259407
49	0x3db16901	0.08662606
50	0x3d815db5	0.06316701
51	0xbd89f08f	-0.06735336
52	0x3cdc6ccb	0.026907345
53	0x3d87566e	0.06608282
54	0x3d0383f6	0.03210827
55	0xbd5104ec	-0.051030084
56	0x3b2b8d9f	0.0026176942
57	0x3df5522b	0.11978563
58	0xbb80f6cc	-0.0039356705
59	0xbd1c8a2e	-0.038217716
60	0xbdd4dcc1	-0.10393668
61	0xbd846b29	-0.06465752
62	0x3dbea049	0.09307916
63	0x3d3cb197	0.0460678
64	0x3d95eccd	0.07320557
65	0x3c471820	0.012151748
66	0xbd815385	-0.06314758
67	0x3ce34ee4	0.027747579
68	0x3d4cdc70	0.050014913
69	0xbd49db9e	-0.04928171
70	0x3dfeca8b	0.12440976
71	0x3dbaee7f	0.09127521
72	0x3d1ae164	0.037812606
73	0x3cecd249	0.028908866
74	0x3d143aa5	0.03618874
75	0xbdd9dd32	-0.10637893
76	0xbc62d0d3	-0.013843733
77	0x3df2bea8	0.11852771
78	0xbb5d272b	-0.003374527
79	0x3c398da3	0.011325273
80	0xbdc1518c	-0.09439382
81	0x3cf32410	0.029680282
82	0x3d8f22c0	0.0698905
83	0x3dc12f4f	0.094328515
84	0xbdf262df	-0.118352644
85	0x3d9fd294	0.078038365
86	0x3dc6d64a	0.09708841
87	0xbd3367a4	-0.04380001
88	0x3e0c7509	0.1371652
89	0x3c3dbc1e	0.011580495
90	0xbd0e3a9b	-0.03472386
91	0xbd663d1d	-0.056210626
92	0x3dca6040	0.098816395
93	0xbdbcbff6	-0.09216301
94	0xbdb92f3b	-0.090422116
95	0xbad4e0cc	-0.0016241311
96	0x3d989e65	0.07452086
97	0xbde8e275	-0.11371318
98	0xbd8321fa	-0.06402965
99	0xbd45db46	-0.04830482
100	0xbdcfe2dc	-0.10150692
101	0xbdafad1f	-0.08577942
102	0x3ce0a886	0.027424108
103	0xbd83165e	-0.064007506
104	0x3dba383d	0.09092758
105	0xbd1760cd	-0.03695755
106	0x3d7d1452	0.061786957
107	0x3d891a5c	0.06694481
108	0xbd5335c0	-0.051564932
109	0xbd9d69fb	-0.0768623
110	0x3cf15743	0.029460555
111	0xbdb23e36	-0.08703272
112	0xbc4a57e9	-0.012350061
113	0x3da6f9b6	0.08153097
114	0xbde00369	-0.109381504
115	0x3de3cabb	0.11122652
116	0xbe0bae46	-0.13640699
117	0x3d6d5d06	0.057950042
118	0x3dafb3a6	0.08579187
119	0x3cfa4dac	0.030554615
120	0xbbc3c853	-0.0059748082
121	0xbd9b0c42	-0.07570697
122	0xbdcc2b48	-0.09969193
123	0xbd182ce6	-0.037152193
124	0x3c9fda25	0.0195132
125	0x3cc1fed2	0.023681078
126	0x3bf227d4	0.007390002
127	0x3c66d018	0.014087699
128	0x3e059f26	0.13048992
129	0xbdbd2e0b	-0.092372976
130	0x3dede7d5	0.11616484
131	0x3d656886	0.056007884
132	0xbdb35f2e	-0.087583885
133	0xbcf3076a	-0.029666621
134	0x3e07aca6	0.13249454
135	0xbd60c7c1	-0.054878
136	0x3def65e8	0.11689359
137	0x3ddb4fa4	0.107085496
138	0xbda4ebc3	-0.080527805
139	0xbd6ec6ee	-0.058295183
140	0x3d761bd1	0.06008512
141	0x3de025e1	0.10944725
142	0x3d518e78	0.05116126
143	0x3db30d62	0.08742787
144	0xbd1ee4a3	-0.038792264
145	0x3dae60b8	0.085145414
146	0x3df47d3b	0.11937948
147	0xbd0af6bc	-0.03392671
148	0x3d287b93	0.041133475
149	0xbd3d5447	-0.04622295
150	0xbdca6009	-0.098815985
151	0xbe00007f	-0.12500189
152	0x3d4f1fe8	0.050567538
153	0x3c0bd3fd	0.008534429
154	0xbdac0c6f	-0.08400809
155	0xbd63780c	-0.055534407
156	0x3d190f0b	0.03736786
157	0xbd34d33f	-0.044146772
158	0x3d77423b	0.060365897
159	0xbd97bf14	-0.07409492
160	0x3dcc7c01	0.09984589
161	0xbdd004bc	-0.10157153
162	0x3df19fcc	0.11798057
163	0xbdb10d82	-0.086451545
164	0xbdc2eab8	-0.09517425
165	0xbdd5b049	-0.10434014
166	0x3d02b23a	0.03190825
167	0x3d398bfb	0.04529951
168	0x3d27719e	0.04087984
169	0xbdc13bd5	-0.0943524
170	0x3e02ee91	0.12786318
171	0x3dcbf035	0.09957925
172	0xbdcb0516	-0.099130794
173	0x3d123b5f	0.035701152
174	0x3de0472c	0.10951075
175	0xbde352ed	-0.11099801
176	0x3df939ca	0.121692255
177	0x3dade7a5	0.08491448
178	0xbdc2da6b	-0.09514316
179	0xbde88ede	-0.11355375
180	0x3d2163c6	0.039401792
181	0xbb7f6298	-0.0038968679
182	0xbcbdbd1b	-0.023161462
183	0x3b346994	0.002752875
184	0xbc9ac7a4	-0.018894024
185	0x3dad9015	0.08474747
186	0xbc2c4385	-0.010514145
187	0xbd7bda65	-0.061487574
188	0xbcd068c9	-0.02544059
189	0x3c33f3f4	0.010983456
190	0xbbbb2f46	-0.0057124225
191	0x3d8b282a	0.0679477
192	0xbd0a8f24	-0.033827916
193	0xbd8a35ef	-0.06748568
194	0x3d378197	0.04480132
195	0xbd658e4d	-0.05604391
196	0x3b18e335	0.0023328785
197	0x3da327bd	0.07966564
198	0xbddec88b	-0.10878094
199	0xbdba3740	-0.09092569
200	0xbdd1e8c0	-0.10249472
201	0xbdf947c7	-0.121718936
202	0x3d427702	0.047476776
203	0x3d8053af	0.062659614
204	0xbc872a39	-0.016499626
205	0x3d60515c	0.05476509
206	0x3d6d12b7	0.057879176
207	0x3da82298	0.08209723
208	0x3dd8c000	0.10583496
209	0x3df3b1a8	0.118991196
210	0x3ddaa8bc	0.10676715
211	0xbd08eec1	-0.03343082
212	0xbc3c4a9d	-0.011492399
213	0x3e067997	0.1313232
214	0x3dd59107	0.104280524
215	0x3c149c1e	0.009070424
216	0x3d581a72	0.052759595
217	0x3dd3cdf6	0.10342018
218	0x3cec762e	0.028864946
219	0x3db2df37	0.08733981
220	0x3d8c9a06	0.06865315
221	0xbd3f7ca7	-0.046749737
222	0xbd94d3a3	-0.07266929
223	0x3cd53606	0.026026737
224	0xbcb66132	-0.022263143
225	0x3da0c14e	0.0784937
226	0x3dfa2429	0.12213928
227	0x3d81ab64	0.06331518
228	0xbdc4263d	-0.09577606
229	0x3deca906	0.11555676
230	0x3d046b2f	0.03232878
231	0x3e046946	0.12930784
232	0x3df62181	0.12018109
233	0x3d4e7fba	0.05041478
234	0xbd8c6e4a	-0.068569735
235	0x3d1d3004	0.03837587
236	0x3def2124	0.11676243
237	0x3ddd9815	0.10820023
238	0x3dbb66ca	0.09150465
239	0x3de5521c	0.11197302
240	0x3e08a5e7	0.13344537
241	0xbd1b7600	-0.03795433
242	0xbda80952	-0.08204903
243	0xbe1a6096	-0.15075907
244	0x3d1a1cf0	0.037625253
245	0xbe244d66	-0.1604515
246	0xbdcec545	-0.1009622
247	0x3df80dbe	0.12111996
248	0x3da3a5a8	0.07990581
249	0xbda6e059	-0.0814826
250	0x3dd8dd7b	0.10589119
251	0x3d827b62	0.0637119
252	0xbd1aad8b	-0.03776316
253	0xbdbca49d	-0.09211085
254	0x3cac180a	0.021007556
255	0x3dd6b709	0.1048413

conv3.bias f4 [256]
0	0xbd784075	-0.060608346
1	0x3d8720d1	0.06598056
2	0x3dd76f76	0.10519306
3	0x3dc7541e	0.09732841
4	0xbd2d503d	-0.04231285
5	0xbd6b704f	-0.057480153
6	0x3d93c079	0.072144456
7	0xbd50fa38	-0.051019877
8	0xbd87eb73	-0.06636705
9	0x3db599fd	0.088672616
10	0x3d5443a6	0.051822327
11	0xbde03a21	-0.10948587
12	0xbd58a427	-0.052890923
13	0x3da0bd74	0.07848635
14	0xbd677dc1	-0.056516413
15	0xbd5f8731	-0.054572288
16	0x3d8659d6	0.065601036
17	0xbd80c7a6	-0.0628808
18	0xbd9d8f1d	-0.07693312
19	0x3d66cde1	0.056348685
20	0xbd649f48	-0.055815965
21	0x3d3d6b8a	0.046245135
22	0xbda82cc0	-0.082116604
23	0xbd870942	-0.06593563
24	0x3dbbcbfc	0.09169766
25	0xbde9181d	-0.11381552
26	0x3dad7b25	0.084707536
27	0x3da2b92b	0.07945474
28	0xbdab03c8	-0.083503306
29	0x3d943b76	0.07237904
30	0xbd404994	-0.04694517
31	0xbd5dba24	-0.054132596
32	0xbd631427	-0.05543914
33	0xbd9e2ad5	-0.07723013
34	0x3d3fc1d4	0.04681571
35	0xbd9a5bff	-0.07537078
36	0xbd4f7811	-0.050651614
37	0x3d84edea	0.06490691
38	0xbd5f00a8	-0.054443985
39	0xbd48a04e	-0.048981003
40	0xbdb6a2f1	-0.08917797
41	0xbd5d2a89	-0.053995643
42	0x3da78050	0.081787705
43	0xbd88dce9	-0.0668276
44	0xbd81c74c	-0.06336841
45	0x3d9dbe53	0.07702317
46	0x3db01850	0.08598387
47	0x3db1928e	0.08670531
48	0x3dd34728	0.10316306
49	0x3d9a5ece	0.07537614
50	0x3ddd3449	0.10800988
51	0x3d3e22ab	0.04641978
52	0x3d81c38d	0.063361265
53	0xbdd678d9	-0.104722686
54	0xbdc93015	-0.09823624
55	0xbd592cfc	-0.053021416
56	0x3d90c782	0.07069303
57	0x3dd5a137	0.1043114
58	0x3dcfa410	0.10138714
59	0x3d54a799	0.051917646
60	0x3d8a67b1	0.06758059
61	0xbd49d3c2	-0.049274214
62	0xbdd865ac	-0.10566267
63	0xbdaf7342	-0.085669056
64	0xbd70336e	-0.058642797
65	0xbdc0bdde	-0.09411214
66	0x3d4ac64f	0.049505528
67	0x3d58980e	0.052879386
68	0x3de1fa1a	0.11034031
69	0x3daccef3	0.0843791
70	0x3dd5e441	0.104439266
71	0x3d7152ad	0.058916736
72	0x3d4ae9d4	0.049539402
73	0xbd6a0e7a	-0.057142712
74	0xbd90e34b	-0.07074603
75	0x3daad220	0.083408594
76	0xbd8861e1	-0.06659294
77	0x3d9575a7	0.07297831
78	0x3de8a291	0.11359132
79	0x3d6aa6ed	0.0572881
80	0xbdd5f310	-0.10446751
81	0x3da1bb26	0.07897024
82	0xbd6d3958	-0.057916015
83	0xbd7298ee	-0.059227876
84	0x3d5c130a	0.053729095
85	0xbdc175ad	-0.09446273
86	0xbd3f16d4	-0.04665263
87	0xbd522b3c	-0.051310763
88	0xbd9c76e4	-0.07639864
89	0x3d509d1a	0.050931074
90	0xbd48d1cf	-0.049028214
91	0xbd3700b5	-0.04467841
92	0xbd83f2c0	-0.06442785
93	0xbdca089a	-0.09864922
94	0xbdd6f9f1	-0.10496891
95	0xbd6e1cab	-0.05813281
96	0xbd524c40	-0.05134225
97	0x3dbe66c6	0.09296946
98	0xbd5e4ee0	-0.05427444
99	0xbdab84a4	-0.083749086
100	0xbdc64dc2	-0.096828
101	0xbd5e8e70	-0.054335058
102	0x3d7bb362	0.06145037
103	0x3d3d5313	0.046221804
104	0xbd403019	-0.04692087
105	0x3da5b728	0.08091575
106	0x3d8564cc	0.06513366
107	0xbd7cbe08	-0.061704665
108	0x3dc336f0	0.09531963
109	0xbd937b07	-0.072012
110	0x3d82da95	0.063893475
111	0xbd69131c	-0.05690299
112	0xbdd4c6eb	-0.10389503
113	0x3dd44589	0.10364825
114	0xbd3a3e2a	-0.04546944
115	0xbd798ff9	-0.06092832
116	0xbdae0496	-0.084969684
117	0xbde32160	-0.1109035
118	0x3d3467fb	0.044044476
119	0x3d7bd010	0.06147772
120	0x3d6185f8	0.055059403
121	0x3d6af55b	0.057362895
122	0xbd949f61	-0.072569616
123	0xbd869f23	-0.06573322
124	0xbda3b2e3	-0.07993104
125	0x3dda81f3	0.10669317
126	0xbdb9dd49	-0.0907541
127	0x3d40b2fd	0.047045697
128	0xbd41fc02	-0.047359474
129	0xbd7f3ddd	-0.062314857
130	0xbd810a19	-0.06300754
131	0x3d55bd21	0.05218232
132	0xbdb5d5c0	-0.0887866
133	0x3d8ba00c	0.06817636
134	0xbd49e01f	-0.049286004
135	0xbdbd0564	-0.09229544
136	0xbd6f0b2f	-0.058360275
137	0xbdca421a	-0.09875889
138	0xbd655f46	-0.055999063
139	0xbd4f04e2	-0.050541766
140	0x3d87a4ea	0.06623252
141	0x3d9afabd	0.07567356
142	0xbd5b4385	-0.05353119
143	0xbd9027c2	-0.07038833
144	0x3d877226	0.06613569
145	0x3d3d1bb2	0.04616899
146	0x3d76756d	0.06017058
147	0x3d3e2d94	0.046430185
148	0xbd7489c0	-0.05970168
149	0xbda95cfb	-0.08269688
150	0xbd5f737b	-0.05455349
151	0xbdd6518c	-0.104647726
152	0x3d5d48a5	0.054024357
153	0x3d3c6d7a	0.046002842
154	0xbddd5301	-0.10806847
155	0xbd9480ba	-0.07251115
156	0x3d93218c	0.07184133
157	0x3db5eb54	0.08882776
158	0x3dc57f62	0.09643437
159	0x3da55168	0.08072168
160	0xbdbd7b65	-0.09252051
161	0xbd48e0ba	-0.04904244
162	0xbddbef93	-0.107390545
163	0xbd36ff37	-0.044676986
164	0x3d6bb006	0.057540916
165	0x3d58d709	0.05293945
166	0xbd995817	-0.07487505
167	0xbdc8358d	-0.09775839
168	0xbd604b14	-0.0547591
169	0xbd508530	-0.050908267
170	0x3d74113e	0.059586756
171	0x3d8ccb24	0.068746835
172	0x3d479742	0.048728235
173	0xbd651c91	-0.055935446
174	0xbd57eb31	-0.05271453
175	0x3d891648	0.06693703
176	0x3d610ae6	0.054942034
177	0x3d7a6c1f	0.06113827
178	0x3d8837f5	0.06651298
179	0x3d62b65c	0.055349693
180	0xbd54f598	-0.05199203
181	0x3d6c917c	0.057755932
182	0xbdad91ce	-0.08475076
183	0x3d334ada	0.043772556
184	0x3dbbde72	0.091732875
185	0xbdd96435	-0.10614816
186	0x3dbcea80	0.09224415
187	0x3d340cad	0.0439574
188	0x3d8c11f5	0.068393625
189	0x3da25f09	0.07928283
190	0x3dba95a0	0.0911057
191	0x3d77ba29	0.06048027
192	0x3dcdbfda	0.100463584
193	0x3d436dc3	0.0477121
194	0x3dc27c28	0.09496337
195	0x3dbc8486	0.09204964
196	0x3da742b5	0.0816702
197	0xbd8a9580	-0.06766796
198	0x3da531c5	0.080661334
199	0x3dbc174a	0.091841295
200	0xbd466670	-0.048437536
201	0xbd406da4	-0.04697956
202	0x3d2f48ab	0.04279391
203	0x3dcad010	0.09902966
204	0x3d4772f0	0.048693597
205	0x3d819005	0.06326298
206	0xbd815a85	-0.06316093
207	0xbd89af31	-0.06722868
208	0x3d977663	0.07395627
209	0x3dbe188c	0.09282026
210	0xbd60345e	-0.05473744
211	0xbd852bba	-0.06502481
212	0x3db0932f	0.08621823
213	0x3d6f1d30	0.058377445
214	0x3d82a412	0.0637895
215	0x3d39277a	0.045203663
216	0xbd9c8fa2	-0.07644583
217	0xbde18cf8	-0.11013216
218	0xbd62ec9b	-0.055401426
219	0x3d5a75c4	0.053334966
220	0xbd97997b	-0.07402321
221	0x3d6f74f3	0.05846114
222	0x3d8f9989	0.070117064
223	0xbd609a0b	-0.054834407
224	0xbdbfe667	-0.09370118
225	0x3d9277f6	0.07151787
226	0xbd455858	-0.048179954
227	0xbd9efc4c	-0.077629656
228	0x3da3a9da	0.07991381
229	0xbd790cd8	-0.060803264
230	0xbd51fca7	-0.05126634
231	0xbd8db23d	-0.06918762
232	0x3d3db1a3	0.046311986
233	0xbd71027b	-0.058840256
234	0xbd4798bd	-0.048729647
235	0x3dc150db	0.0943925
236	0xbd81728b	-0.063206755
237	0xbd8034f7	-0.06260102
238	0x3d5bf753	0.053702664
239	0xbd52bb12	-0.051447935
240	0xbd9ae127	-0.07562476
241	0xbda9add9	-0.08285112
242	0x3d43643e	0.04770302
243	0x3d99ed07	0.075159125
244	0xbdc2703c	-0.09494063
245	0xbd3f7697	-0.046743955
246	0x3d48ed09	0.04905418
247	0x3d8f3968	0.06993371
248	0x3daf9238	0.08572811
249	0x3d84dae7	0.06487065
250	0xbdb988e4	-0.09059313
251	0xbd38ac56	-0.045086227
252	0xbd4221b6	-0.04739543
253	0x3d7777f8	0.060417145
254	0x3d7b3b70	0.06133598
255	0xbd9e8677	-0.07740491

conv3.lin.weight f4 [256, 128]
0	0xbdee948f	-0.11649429
1	0xbdb4497c	-0.088030785
2	0x3dd47fd6	0.10375945
3	0x3d687ace	0.05675774
4	0x3bee553d	0.007273345
5	0x3d04df01	0.032439236
6	0x3c90c96e	0.017674174
7	0xbdc553aa	-0.09635098
8	0x3ce46214	0.027878799
9	0xbd1c70cc	-0.03819351
10	0xbc503f29	-0.012710371
11	0xbdc3fbac	-0.09569487
12	0x3d18e9a9	0.03733221
13	0x3e10bb6f	0.14134
14	0x3de4fdc3	0.11181214
15	0xbd06d541	-0.03291822
16	0x3d208bdc	0.03919588
17	0xbdeea5b9	-0.11652703
18	0x3bb9ab17	0.0056661475
19	0xbdfc9969	-0.12333948
20	0x3cf6f840	0.030147672
21	0xbdab7b9c	-0.08373186
22	0x3d2cc73a	0.042182185
23	0x3bc25329	0.0059303236
24	0x3e1c93f2	0.15290812
25	0x3d7f6965	0.06235637
26	0xbd8fada1	-0.07015539
27	0xbd776b62	-0.060405143
28	0x3cf4c29c	0.029877953
29	0x3de5b84b	0.11216792
30	0xbd5f337e	-0.054492466
31	0xbb11c74c	-0.0022244034
32	0x3dcb69f9	0.09932322
33	0x3d7c0739	0.061530326
34	0x3dcc8d56	0.09987895
35	0xbdaa749f	-0.08323025
36	0x3de56446	0.11200766
37	0xbd315620	-0.043295026
38	0xbda84f62	-0.08218266
39	0xbd360865	-0.0444416
40	0xbd55453a	-0.052067973
41	0xbcfc4e6e	-0.030799117
42	0x3d147d7c	0.036252484
43	0xbdade030	-0.08490026
44	0xbdbb2f8a	-0.09139927
45	0x3deb9306	0.11502652
46	0x3dfc904a	0.123322085
47	0xbde01818	-0.109420955
48	0x3e1e265b	0.15444319
49	0x3d887522	0.06662966
50	0xbda45aff	-0.08025169
51	0xbd8a7dde	-0.067622885
52	0xbdc2a913	-0.095049046
53	0x3dbbe369	0.091742344
54	0xbdcb217e	-0.099184975
55	0x3d9bdbba	0.07610269
56	0x3d1d3452	0.038379975
57	0xbd9ba727	-0.07600241
58	0x3ca0a722	0.019610945
59	0x3ce383a9	0.027772741
60	0xbc7c0a1e	-0.0153832715
61	0x3d0077bf	0.0313642
62	0x3de5b009	0.11215217
63	0x3beef4a0	0.007292345
64	0xbdc9e000	-0.09857178
65	0x3d326f31	0.04356307
66	0x3dd5c594	0.10438076
67	0xbdf99859	-0.12187261
68	0x3d8e79f9	0.06956858
69	0xbd8f24f8	-0.06989473
70	0x3d4a0b8f	0.04932743
71	0xbd83e7fa	-0.064407304
72	0xbda3c155	-0.079958595
73	0x3de22d51	0.110438
74	0xbde93685	-0.11387352
75	0xbd60f7fe	-0.054924004
76	0xbd4a4584	-0.0493827
77	0xbb1fe1ce	-0.0024396065
78	0x3bed57de	0.0072431406
79	0xbd5199c6	-0.05117204
80	0xbdd18504	-0.10230449
81	0x3dbd96e0	0.09257293
82	0x3cd349b3	0.025791978
83	0xbccae0ac	-0.024765335
84	0x3cade95e	0.021229442
85	0xbd6ee12e	-0.058320217
86	0xbde2ae60	-0.11068416
87	0x3ca55849	0.0201837
88	0x3d242995	0.04007872
89	0x3d3befe9	0.045883093
90	0xbdcbf59f	-0.09958958
91	0x3da80277	0.08203595
92	0x3db75609	0.08951957
93	0x3dca705b	0.09884711
94	0xbd8a29c6	-0.06746249
95	0x3de5216b	0.111880146
96	0xbda35792	-0.07975687
97	0x3b0d3c99	0.0021551012
98	0x39439282	0.00018651228
99	0xbd8937a4	-0.06700066
100	0x3dcbabb5	0.0994486
101	0x3d333161	0.043748263
102	0xbdc368f9	-0.09541506
103	0xbdaffadd	-0.0859277
104	0xbdab665d	-0.083691336
105	0xbc28b495	-0.01029696
106	0x3b8a8451	0.004227199
107	0xbbef3791	-0.007300325
108	0xbd70e6d7	-0.058813896
109	0xbdc8eaf0	-0.09810436
110	0x3dfe0175	0.12402622
111	0x3aac7c84	0.0013159667
112	0xbdaa6730	-0.08320463
113	0x3ce6a12b	0.028153023
114	0x3d9b6879	0.07588286
115	0xbd90f9e2	-0.07078911
116	0xbd881a7f	-0.06645679
117	0xbdf7e481	-0.121041305
118	0xbd490af4	-0.04908271
119	0xbe0dcb01	-0.13846971
120	0xbd122e0c	-0.035688445
121	0xbca6291d	-0.020283276
122	0x3bbf797f	0.005843341
123	0x3d82c01d	0.06384299
124	0xba9d9283	-0.0012021813
125	0xbbc75761	-0.0060834144
126	0xbd7ab7e3	-0.061210524
127	0x3dc55ca0	0.096368074
128	0x3c06fb88	0.008238681
129	0xbdd0b4df	-0.101907484
130	0x3dd9b239	0.106296964
131	0x3db96d02	0.09053995
132	0xbd427367	-0.047473338
133	0x3e039ca0	0.12852716
134	0xbd565623	-0.05232824
135	0x3ded37a8	0.11582881
136	0x3d9b4d35	0.075830854
137	0x3d8f417f	0.06994914
138	0x3d3d3ed4	0.046202496
139	0xbdb6bce7	-0.08922749
140	0x3d99bb7d	0.07506464
141	0x3d139d27	0.036038544
142	0xbcdddb89	-0.027082222
143	0xbcd916db	-0.026500156
144	0x3debc563	0.11512258
145	0xbdd34a8f	-0.10316955
146	0x3c9f13c0	0.019418597
147	0xbdc0ac09	-0.09407813
148	0x3cfc1b66	0.030774783
149	0xbd787852	-0.06066162
150	0x3d857c6f	0.065178744
151	0xbac7496d	-0.0015204378
152	0x3d766951	0.06015903
153	0xbd1b8844	-0.03797175
154	0xbd878e30	-0.06618917
155	0xbd94a92b	-0.07258829
156	0x3df67fd0	0.12036097
157	0x3da3dacc	0.080007166
158	0x3dc5e426	0.096626565
159	0x3d3c2718	0.04593572
160	0xbbba270d	-0.0056809247
161	0x3ddf29cf	0.10896646
162	0x3de516e7	0.11186009
163	0xbdcbd15b	-0.09952041
164	0xbdcc489b	-0.09974786
165	0x3b95f1e3	0.0045759543
166	0x3cfc4aee	0.030797448
167	0xbdf64612	-0.120250836
168	0x3dd2b3a3	0.10288169
169	0x3c8b938d	0.017038131
170	0xbb8a4d95	-0.0042206743
171	0xbdbd7b0a	-0.092519835
172	0xbd755904	-0.059899345
173	0x3d843715	0.064558186
174	0x3d1901ea	0.03735534
175	0xbc123722	-0.0089242775
176	0xbe13ba99	-0.1442665
177	0xbdd883fa	-0.105720475
178	0xbdb47f8d	-0.08813391
179	0x3d0b7187	0.034043815
180	0x3ddafeaf	0.10693108
181	0xbd78f928	-0.06078449
182	0x3d16c529	0.03680912
183	0x3dac5bd6	0.08415954
184	0xbdbd5e21	-0.09246469
185	0xbd752758	-0.059851974
186	0x3d4aa3cd	0.04947262
187	0xbd84e6f1	-0.06489361
188	0xbddf142a	-0.10892518
189	0x3dffb793	0.12486186
190	0xbd10e595	-0.035375196
191	0xbde71a3d	-0.112843014
192	0x3d5e4763	0.0542673
193	0x3d20337f	0.03911161
194	0x3d7b45cd	0.061345864
195	0x3d510072	0.051025815
196	0xbda846e3	-0.082166456
197	0x3dba3eaa	0.090939835
198	0x3c8069aa	0.015675385
199	0xbb88879f	-0.004166558
200	0x3dbc1ee3	0.09185579
201	0x3d98aec3	0.07455208
202	0xbcb46c81	-0.022024395
203	0x3cee1d5d	0.029066736
204	0xbde4c068	-0.11169511
205	0x3ddf961f	0.10917305
206	0x3dba3655	0.09092394
207	0x3c2fd06e	0.010730846
208	0xbd924c32	-0.07143439
209	0x3a0830fd	0.0005195288
210	0xbcf67b6f	-0.030088155
211	0xbd44b01d	-0.048019517
212	0xbc0fb6a7	-0.008771575
213	0x3dabd5ed	0.083904125
214	0xbd45844f	-0.048221882
215	0x3dbe178d	0.09281836
216	0x3d57bb51	0.052668873
217	0x3d7456c8	0.059653074
218	0x3d8e9aad	0.06963096
219	0xbe178f25	-0.14800699
220	0x3d41617a	0.0472121
221	0x3dd8ddfb	0.105892144
222	0x3d11bb06	0.03557875
223	0x3e04be59	0.12963237
224	0x3dc796e1	0.09745575
225	0xbd62d2bf	-0.055376764
226	0x3de90307	0.113775305
227	0xbdcc1b79	-0.099661775
228	0xbdeec145	-0.11657957
229	0xbe276539	-0.16347207
230	0xbc585223	-0.013203177
231	0x3c01f272	0.007931339
232	0x3de0ba0f	0.10972988
233	0x3cbbc5dc	0.022921495
234	0xbd96b0fb	-0.07357975
235	0x3cac2541	0.021013858
236	0xbdd7a276	-0.10529034
237	0x3dd40371	0.10352219
238	0xbb841017	-0.0040302384
239	0xbca704d2	-0.02038804
240	0xbdc6e544	-0.09711698
241	0xbda3e4a3	-0.08002593
242	0xbda90bd5	-0.0825421
243	0xbcccdcec	-0.025007688
244	0x3dd4e7fa	0.103958085
245	0x3ddacb79	0.106833406
246	0x3d399032	0.04530353
247	0xbccb8e5d	-0.024848158
248	0x3dd2fb7b	0.10301872
249	0x3cf6fa1d	0.03014856
250	0x3d95da98	0.07317084
251	0x3b28be87	0.0025748329
252	0xbc6e4408	-0.014542587
253	0xbd4b645d	-0.04965626
254	0x3e068346	0.13136014
255	0x3df0ced9	0.11758203
