gcn_model.pth (torch, 315676 bytes, 6 tensors)

conv1.bias f4 [256]
000000 a3 3f ef 3b 9b c8 2a bc 26 01 0c 3c f8 32 50 3c
       0.0073012873 -0.010423805 0.008545196 0.012707464
000010 67 aa c6 3b 62 b4 39 bc 20 54 15 3c 49 b7 19 bc
       0.006062794 -0.0113345105 0.009114295 -0.0093820775
000020 1b 2e 24 3c cf 3a 3d 3c 72 af 89 3b 00 27 63 3c
       0.010020758 0.011549666 0.004201823 0.013864279
000030 fa f0 30 3c 1e 5f 66 3c 44 78 bc 3b b9 ea 6c 3c
       0.010799641 0.014060764 0.0057516415 0.014460259
000040 f5 46 49 3c d3 27 c6 bb ac ff e7 bb 84 99 ae 3b
       0.012284984 -0.006047228 -0.007080039 0.005328359
000050 e7 29 5b bc 62 ea d0 3b 36 ac df 3b f0 e9 e1 3b
       -0.0133766895 0.006375597 0.006825949 0.0068943426
000060 2e 66 41 3c c4 df 62 3c 4f 40 be bb a9 e7 c2 3b
       0.011804147 0.013847295 -0.005806006 0.005948026
000070 a7 7d 14 3c 9b 22 d2 bc 65 5b 93 3c 62 32 33 3c
       0.009063161 -0.025651267 0.017987916 0.010937305
000080 30 26 bc 3b 37 98 5a 3c 76 1c 12 3c c8 ce 1b 3c
       0.005741857 0.013341955 0.008917918 0.00950975
000090 ea b9 e6 3b 52 4c 0a 3c d4 d8 22 3c d6 fc 82 3c
       0.0070412057 0.008441048 0.009939391 0.015989702
0000a0 b5 70 19 bc f5 67 ed 3b 66 04 0c bc d8 44 f7 3b
       -0.00936525 0.0072450587 -0.008545971 0.0075460486
0000b0 32 63 b9 3b 9e 37 64 3c 62 99 8d 3b ca cc 4d 3c
       0.005657577 0.013929276 0.004321263 0.012561033
0000c0 94 04 12 3c c2 04 60 3c 0e 3f b7 bb 52 51 fd bb
       0.008912224 0.013673009 -0.0055922335 -0.0077306414
0000d0 76 6c 51 3c a4 2c 42 bc 2a be ad bb fd a3 12 3c
       0.012782207 -0.0118514635 -0.0053022103 0.008950231
0000e0 6f 74 a4 3c 52 d3 9b 3c 6a 6d 96 bc 3e 70 1f 3c
       0.020075051 0.019021664 -0.01836272 0.0097313505
0000f0 67 68 32 3d fb 0c 83 3c 3a 0a 1f 3c b7 d1 2a bc
       0.043556597 0.0159974 0.009707028 -0.0104259765
000100 fd 54 83 3b 72 4e 4f 3c 57 98 40 3c 07 fb 81 3b
       0.004007934 0.01265298 0.011755071 0.0039666924
000110 10 4b 42 3b 78 f6 2a bc 55 2c 4a 3c 83 bb 5d bc
       0.0029646792 -0.010434739 0.012339671 -0.013533476
000120 0d 92 89 3c 20 04 37 3a dc 5f c9 3b f3 e0 5c 3c
       0.016793275 0.00069815107 0.0061454605 0.013481366
000130 67 f3 fe ba a5 df 0d 3c 60 d1 ff 3a 18 8d 26 bc
       -0.0019451202 0.008659278 0.0019517355 -0.010165475
000140 23 b2 32 3c f3 16 a8 3b 66 1c 0b 3b 6f 3c 59 3c
       0.010906729 0.005129689 0.0021226644 0.013259037
000150 b6 21 e7 39 04 e7 ad 3b 66 a1 82 3b ab 94 4f 3c
       0.0004408487 0.00530708 0.0039865253 0.012669723
000160 9d b1 eb bb df 0a 0a 3c 0e 68 02 3b 6d 46 c7 3b
       -0.007192804 0.008425443 0.0019898447 0.0060813935
000170 d3 67 6c 3c ce e0 94 3c 44 d3 20 3c b5 ef 4a 3c
       0.0144290505 0.018173601 0.009815995 0.012386252
000180 eb 03 1c bc 2e e7 82 3c 2b 37 e9 3b c3 bc 70 3c
       -0.0095224185 0.015979376 0.0071171722 0.014693442
000190 99 d6 00 3d 48 41 24 bc ee ce b9 bb 28 59 6e 3c
       0.031454656 -0.01002533 -0.00567042 0.014547624
0001a0 3c 75 9f 3b 2e b4 2a 3b 2d a7 23 bc 3c fe ba 3a
       0.0048662703 0.0026047337 -0.009988588 0.0014266442
0001b0 fd 84 9f 3b 8e 94 93 39 5c c0 1b 3b 9b bd a5 3c
       0.0048681484 0.00028148707 0.0023765778 0.020232012
0001c0 bb 3d cf bb 24 00 0d 3c 30 40 e5 37 0a 26 0f 3c
       -0.0063244975 0.008605991 2.7328817e-05 0.008737097
0001d0 7d 08 7e 3b ed 25 14 3c 15 07 ce 3b 50 03 ef 3b
       0.0038762384 0.009042245 0.0062874653 0.007294096
0001e0 3e 0a 06 bc 89 c4 1c 3b da 93 90 3b 82 0d 74 bc
       -0.008181153 0.0023920855 0.0044121565 -0.014895799
0001f0 8a 78 18 3c 14 a2 e1 3b 3f e5 14 bc 28 34 19 3c
       0.0093060825 0.0068857763 -0.00908786 0.009350814
000200 f2 61 7b 3c 03 35 23 3c 3e b3 21 39 5e 83 65 3b
       0.015343176 0.009961369 0.0001542093 0.0035020928
000210 39 00 2f 3b 6b e7 7f 3b 73 72 10 bc b2 40 f7 3b
       0.0026703014 0.0039047848 -0.008816349 0.007545554
000220 fa 12 23 3c 75 95 0c bc d1 df d2 3b 72 f0 80 bc
       0.009953255 -0.008580555 0.0064353724 -0.015739653
000230 bd bf 37 3c 28 51 cf bb 3c ee 9f 3b c0 8b 6c 3b
       0.011215148 -0.0063268133 0.0048806947 0.003609404
000240 9b 61 d9 3c e9 dc 5d 3c a2 e7 18 bc 66 40 e9 3b
       0.0265358 0.013541439 -0.009332569 0.0071182726
000250 b3 1a ac 3b 09 a1 f7 3b a2 36 23 bb d7 8a f9 3b
       0.005252206 0.0075570387 -0.002490439 0.007615428
000260 2c cd ca 3c f3 2f d0 3b b1 43 ab bb ea c3 45 3b
       0.024756037 0.0063533722 -0.0052265753 0.0030176588
000270 88 f9 e5 3b 35 5e 82 3c 42 2e a8 3b 48 0d 0f 3b
       0.007018272 0.015914062 0.0051324675 0.0021827985
000280 e9 9e be b9 9f af cf bb 66 62 92 bc 18 83 65 3c
       -0.0003635802 -0.0063380743 -0.017869186 0.014008306
000290 8c 8b 29 3c bd 3f 43 bc 0b 99 04 bc 5b b8 99 bc
       0.010348212 -0.011917052 -0.008093129 -0.018764665
0002a0 83 18 b4 3b 33 22 1c 3c 2e ad 0d 3c bd e5 85 3b
       0.005496086 0.009529638 0.008647246 0.004086225
0002b0 5e 54 14 3b ad ca 98 3b 4a d3 27 3c ca 69 3f bc
       0.0022633295 0.0046628327 0.010243246 -0.011682937
0002c0 38 5e 40 3c fa 28 7a 3c c4 43 5a 3c f7 49 78 3c
       0.0117412135 0.015268559 0.013321821 0.015154353
0002d0 45 4a 95 3b 2c 42 8c bb f1 55 37 3c 2f 72 23 bc
       0.0045559728 -0.0042803492 0.011189924 -0.009975954
0002e0 3e 7f 57 3c 27 ce 0a 3c 08 8c 4d 37 b0 f6 3e 3b
       0.0131528955 0.008472002 1.2251556e-05 0.0029138736
0002f0 87 dd 11 3c 96 81 4c 3c 40 e1 3e 3c d5 57 1c bc
       0.008902914 0.012482068 0.0116503835 -0.009542425
000300 53 b5 7f 3c 72 96 87 3c d2 21 89 39 a6 0b 42 3b
       0.015607196 0.01655123 0.00026155874 0.0029608994
000310 04 5b 92 3b c7 8f 21 bc 29 9e f9 3b 45 7f 7e 3c
       0.0044664163 -0.009860939 0.007617731 0.015533273
000320 c5 88 e7 3b 36 de 28 3c 6d 0c d7 3b e8 00 d2 3a
       0.0070658647 0.0103068855 0.0065627606 0.0016021999
000330 3a f0 fe bb e4 9e 3d 3d 42 92 7b bb 7f b2 b3 ba
       -0.007780102 0.046294108 -0.0038386737 -0.0013709812
000340 a7 6e 88 bb 13 a7 45 bc 17 5a 84 3b 5c 00 00 3d
       -0.0041635814 -0.012063759 0.00403906 0.031250343
000350 c2 9d ee 3c 53 c7 cf bb 54 cb b3 3b f9 52 f2 3b
       0.02912796 -0.0063409 0.005486885 0.007395145
000360 84 e7 17 3c b3 25 8f 3b 70 f6 6a 3b 55 c5 10 bc
       0.009271506 0.004368508 0.0035852455 -0.00883611
000370 f0 45 b3 ba 0f f1 ac bb 75 0d 6c 3c 18 99 27 b8
       -0.0013677459 -0.00527776 0.014407505 -3.9958482e-05
000380 23 9f 9b 3b d7 4f 4a bc 5a 00 79 3c 3f 4c 25 3b
       0.004749195 -0.012348137 0.015197838 0.0025222448
000390 9e 6d 94 3b c6 19 37 3c c0 8f 04 3c 46 70 a1 3c
       0.004529669 0.011175578 0.008090913 0.019706856
0003a0 c4 f0 8d bb 6e 89 93 3c 0d c5 e9 bb f9 11 35 3c
       -0.00433168 0.018009868 -0.007134086 0.011051648
0003b0 4c 01 27 3c f8 73 1f 3c df 0b 63 3c f5 46 40 3c
       0.01019318 0.009732239 0.013857811 0.0117356675
0003c0 07 c4 6e bc ac 11 b4 3b 24 bc 3c bc b7 17 19 3c
       -0.014573104 0.0054952707 -0.011519466 0.009344033
0003d0 67 5c dc 3c d6 e3 04 3c 59 0a dd 3b f6 23 05 3c
       0.02689953 0.008110961 0.0067456183 0.00812625
0003e0 0d 91 69 bb 47 29 bc 3c 34 1d de 3b 89 e8 06 bc
       -0.0035639436 0.022968901 0.0067783836 -0.008234152
0003f0 9f 3e 2e 3c e9 1d 19 3c 02 ae f8 3b d3 d7 85 3b
       0.010635047 0.00934551 0.0075891027 0.004084566

conv1.lin.weight f4 [256, 47]
000000 8a e1 0c be 60 8f a1 3a 3b 4b b3 3d e5 ab 4b bd
       -0.13757911 0.0012326054 0.087545834 -0.04972448
000010 12 c8 11 3e e9 7c eb ba 55 d4 13 3e 46 ba d2 3d
       0.14236477 -0.0017966303 0.14436467 0.10289435
000020 a1 1d ca bd 17 a1 d6 3d 0a 24 7b 3d 8f c2 c5 bd
       -0.098689325 0.10479944 0.061313666 -0.0965625
000030 4b 81 cb bd 9d b0 01 3e 59 c9 a3 3d ed 1d d7 3d
       -0.0993677 0.12665029 0.079973884 0.10503755
000040 03 84 01 bc c8 75 9c 3d 8f 11 c0 bd 32 18 83 3d
       -0.007905009 0.076396525 -0.09378349 0.06401099
000050 93 56 c0 b9 d0 21 c6 bd 27 0a a8 3d 12 6d 6c 3c
       -0.00036685597 -0.09674418 0.082050614 0.014430301
000060 85 a6 8f bc 3c 26 f8 bd 86 f6 02 be 84 73 13 bd
       -0.017535457 -0.12116668 -0.12789354 -0.035998836
000070 b2 ed 5f bd 2d 86 a3 bd a5 e1 a8 bc 30 14 df bc
       -0.054670043 -0.079845764 -0.020615408 -0.027231306
000080 a6 de 99 bd 93 1d 00 bc d0 ac 08 3e 6b bf 8e bd
       -0.0751317 -0.007819551 0.13347173 -0.06970104
000090 e3 b2 8a 3d 67 f9 a5 3d 18 71 dd 3d 3c 36 f2 bd
       0.06772401 0.0810421 0.108125865 -0.11826751
0000a0 cf 04 8d 3d bb 3f bc bd 2e a4 e5 bc 08 31 cf bd
       0.06885683 -0.09191843 -0.028032389 -0.10116774
0000b0 6c 89 f8 bd 4c 4e 80 bd 14 b7 ae 3d f0 49 97 3d
       -0.12135586 -0.06264934 0.08531013 0.07387149
0000c0 c0 34 09 bc 0f b2 d0 bd da 8d df 3d a1 2f e0 bd
       -0.008374393 -0.10190212 0.10915728 -0.109465845
0000d0 25 e0 28 be 5c 02 b1 bd 4a 13 36 bc 47 d8 07 be
       -0.16491754 -0.08643028 -0.011112997 -0.13266097
0000e0 cc 13 49 bc ac 97 14 3d 0e 5f 8f 3d 3b 6a 7e bd
       -0.012272786 0.036277458 0.07000552 -0.062113028
0000f0 b9 12 09 be e1 18 34 bc 4b 93 b1 3d ec 1a 17 3d
       -0.13386048 -0.01099226 0.08670672 0.03689091
000100 d4 04 d1 3d a8 37 90 3d 4d 7e d3 bd 60 23 aa 3d
       0.10205999 0.070418656 -0.10326824 0.083075285
000110 68 eb df 3a fa 71 cd 3d 7b 81 c9 bc ae 87 8b 3c
       0.0017083706 0.10031505 -0.024597874 0.01703247
000120 b2 09 1f bd 40 2d 57 bd 3b b9 a3 3d 0d 17 b0 bd
       -0.038827606 -0.05253339 0.07994314 -0.085981466
000130 d4 cb 2a 3c c3 b8 ac bd a8 27 85 3d f8 16 08 3d
       0.010424573 -0.08433678 0.065017045 0.03322503
000140 31 01 02 3d 63 88 08 be 18 18 97 3d 2a 23 cd bd
       0.031739417 -0.13333277 0.073776424 -0.10016473
000150 b7 31 c1 3d 04 ae 12 3d f5 63 1e 3c 4b f8 e2 bd
       0.094333105 0.035810485 0.009667386 -0.110825144
000160 70 f0 f5 bd 25 af f0 3d c2 b7 c5 3d 5e f5 f8 3d
       -0.120087504 0.11752156 0.0965419 0.12156175
000170 16 d4 f7 bd 62 e8 01 3e a3 5d 37 bd f0 db 64 bb
       -0.12100999 0.12686303 -0.044767033 -0.0034921132
000180 5e d6 ae 3c a2 d8 df 3d f4 02 97 bd 65 da a2 3d
       0.021342453 0.10929991 -0.0737361 0.07951812
000190 3f 70 be 3d c9 12 2f ba 33 75 86 3d 64 fc ac bd
       0.09298753 -0.00066785194 0.06565323 -0.08446577
0001a0 c4 cf c5 3d b1 dc aa 3d b6 e1 90 3d 69 4b 87 bc
       0.09658769 0.08342875 0.07074301 -0.01651545
0001b0 74 d1 09 bd eb 87 d7 bc f5 f2 9b 3d 8c d2 59 3d
       -0.033647016 -0.026309928 0.076147 0.05317931
0001c0 b5 ac 7b bd d3 81 84 bc e2 72 0b 3e b5 27 90 3d
       -0.061444003 -0.016175186 0.13618043 0.070388235
0001d0 34 8f 28 3d 1d be 8a 3d 11 f4 58 3c c2 95 87 bd
       0.041152194 0.067745425 0.013241784 -0.06620361
0001e0 d8 ea c3 3c 98 33 03 be 82 83 70 bd 48 12 61 bd
       0.023915693 -0.1281265 -0.058719166 -0.054949075
0001f0 90 83 ea 3d 6d d7 82 bd f1 c5 38 3d 9d 3e d7 bd
       0.11450875 -0.063887455 0.045110647 -0.105099894
000200 21 b2 b9 bd 4b 0a ed bd 07 32 c1 bb 5e 1b 68 3d
       -0.090671785 -0.11574229 -0.0058958563 0.056666724
000210 1b a3 aa 3d c0 50 0a 3d 7a 00 90 bd 4c 68 31 3d
       0.08331891 0.033768415 -0.07031341 0.043312356
000220 5f 41 fe 3d 3a 14 e1 bd cc af aa bd 65 af fd bd
       0.12414812 -0.10990186 -0.08334312 -0.123869695
000230 8e 1b 68 3d 61 dd 3e 3d 2d ae e4 3d ce 93 83 3d
       0.056666903 0.046597842 0.11166034 0.06424676
000240 cc 37 0f bd f2 ed cd 3d 23 9c 90 bc 8c 04 10 bd
       -0.03496532 0.1005515 -0.017652577 -0.035160586
000250 38 91 29 3d 67 f8 08 3e 9e 20 c8 bd 5f 03 5e 3d
       0.041398257 0.13376008 -0.09771846 0.054202434
000260 8e 49 80 bc 8e 13 07 3e 2f 8e c6 bd f1 27 b0 bd
       -0.015660074 0.13191053 -0.09695088 -0.08601368
000270 32 8e a4 3b 52 ba c9 bd a2 4b 14 3e 1e ff 08 3e
       0.005021834 -0.09849991 0.14481977 0.1337857
000280 cf 0c ac bd a9 b2 45 3d 1b 44 fe bb fa 4d 7d 3d
       -0.084008805 0.048266087 -0.0077595836 0.061841942
000290 22 e8 fa bd 87 38 6b 3d 6e 10 85 bc 09 e8 b7 bd
       -0.12251307 0.057426956 -0.016243186 -0.08979804
0002a0 d7 42 b9 bd 81 89 6f 3c 6f 87 cd ba 2a c2 84 3c
       -0.09045952 0.014620186 -0.0015680621 0.016205866
0002b0 38 96 d2 bd 83 57 c7 3d fc e7 2d 3d fb 28 fe bd
       -0.10282558 0.097334884 0.042457566 -0.1241016
0002c0 28 77 d6 bd 8f ae be 3d 5b 53 33 3b 7c 63 b1 bd
       -0.10471946 0.09310638 0.0027362916 -0.08661553
0002d0 43 06 83 bd 40 6a 8b 3d dd 1e 71 3d b7 17 b6 3c
       -0.06397679 0.06807375 0.058867324 0.022228105
0002e0 01 e0 81 3d 48 72 e8 3d cb 76 1b 3c 80 92 f4 3c
       0.063415535 0.113499224 0.009488772 0.029855013
0002f0 a9 b2 5c bc e3 18 c9 3d e2 7d b8 3d ac 27 c0 bc
       -0.01347033 0.098192 0.09008385 -0.023456417
000300 19 b5 63 bd 74 0c 77 3d a5 fd a6 3d 23 b5 8c bc
       -0.05559263 0.06031461 0.081538476 -0.017176216
000310 11 57 8d 3d a5 4b 9b 3d 86 76 b7 bd ba f8 25 bc
       0.06901372 0.075827874 -0.089581534 -0.010130102
000320 f2 40 ac bd 5b 25 a0 bd 1c 44 a3 3b d0 43 ab bc
       -0.08410825 -0.07819625 0.0049824845 -0.020906359
000330 3c de b5 3c fa a4 cc bd 75 d1 d3 bd ff ce a2 bd
       0.022200696 -0.09992404 -0.10342685 -0.079496376
000340 89 16 a9 bd b7 a9 f5 bd 7b cf 8e bc a3 da c9 3d
       -0.08256251 -0.11995261 -0.017432919 0.09856155
000350 17 45 7d bd db 83 25 3d 27 2a 53 3d a7 10 2c bb
       -0.061833467 0.04040895 0.05155387 -0.0026255043
000360 7b c2 00 bd b2 e6 08 bd de 73 f4 3d f0 48 c7 3d
       -0.03143547 -0.033423133 0.119361624 0.097307086
000370 a3 dc 0f 3e 9e c1 52 bd 5a 7c ee 3d 8f 60 9c bc
       0.1404901 -0.05145418 0.11644812 -0.019089011
000380 ac 3d a7 bd a4 9a 90 bc ac 20 a9 bd 81 75 18 bd
       -0.0816606 -0.017651863 -0.08258185 -0.037221435
000390 dc 3e f1 bd 92 4d 05 3e 69 90 0a bd 07 ba 03 3d
       -0.117795676 0.13017872 -0.033829127 0.03215983
0003a0 1d 5d 41 3d db 9c 8b 3d 4d 5e db 3d e5 52 62 3d
       0.04720794 0.06817027 0.10711346 0.055254836
0003b0 34 cd 8f 3d df ba 31 bc fc db f3 3d 89 cc 65 bd
       0.07021561 -0.010847776 0.11907193 -0.056103263
0003c0 32 ca 04 be cf b7 1f 3d ad 75 6e 3c 0c 9d 76 bb
       -0.12967756 0.038993653 0.014554423 -0.0037630228
0003d0 8e e6 66 bc dd e9 75 bd a0 0d e0 3d 9c 1f 18 3d
       -0.014093054 -0.060037483 0.10940099 0.03713952
0003e0 f4 02 80 bc f7 12 15 be a3 e8 b9 3d 85 ec a3 bc
       -0.015626408 -0.14558016 0.09077575 -0.020010242
0003f0 30 fe 8d 3d f8 e1 eb bd cc a9 b0 bd 55 81 dd bd
       0.06933248 -0.115177095 -0.08626136 -0.10815684

conv2.bias f4 [128]
000000 ed 0c f7 bb bd 1f f1 bb 78 c4 32 bc c4 ed 03 bc
       -0.0075393827 -0.00735852 -0.0109111 -0.008052293
000010 b5 96 eb bb c4 7a b8 3c 7c 95 43 bb 0e 4f af bb
       -0.0071895965 0.022519477 -0.0029843738 -0.00535
000020 ad e7 fc bb e5 ba ef bb d4 40 f3 b9 51 be 55 bb
       -0.0077180476 -0.0073159807 -0.00046396872 -0.0032614658
000030 70 7b 05 bc c3 83 e6 bb e7 f2 94 3b 32 fa 0f bc
       -0.008147106 -0.00703475 0.004545558 -0.008787679
000040 45 18 55 bb 3a 4d 52 3d e7 9a 2d bc 31 89 91 ba
       -0.0032515686 0.05134318 -0.010596014 -0.0011103508
000050 ce 8c 05 bc 49 ab 59 bb 5b 53 ec bb 58 f8 b9 ba
       -0.008151246 -0.0033213666 -0.007212085 -0.0014188392
000060 66 7b 04 bc cc ae 81 bb d2 bc cf bb 0d bd e3 bb
       -0.008086061 -0.003957605 -0.006339648 -0.006950027
000070 31 24 34 3c 00 67 b8 bb 52 39 6d bb f4 84 03 bc
       0.010994957 -0.005627513 -0.0036197496 -0.008027304
000080 e5 37 b2 bb b4 6c f9 bb 3d fd 99 3b ab 28 0e 3b
       -0.005438792 -0.0076118354 0.004699378 0.002169172
000090 bc f4 a0 3a 77 53 ff bb 93 53 ab bb 9a 47 2e ba
       0.0012279968 -0.007791932 -0.0052284687 -0.00066482427
0000a0 29 85 01 bc 5d 1f a4 bb ff 42 13 3d 88 d5 2d 3c
       -0.007905283 -0.0050086216 0.035952564 0.010609992
0000b0 d8 b6 ba ba bf a0 00 bc 70 d0 e9 ba ac 03 b5 ba
       -0.0014245166 -0.007850825 -0.0017838608 -0.0013810298
0000c0 ec a9 c9 bb 69 7a 08 bc 6b 5b 01 bc c8 f2 0c bc
       -0.0061542895 -0.008329966 -0.007895331 -0.008602805
0000d0 82 55 9c ba 99 d6 16 bc f6 d4 4c ba 04 3c 67 bc
       -0.0011927339 -0.0092064375 -0.0007813716 -0.01411343
0000e0 07 a5 31 3c 48 59 0c bc 90 e2 08 bc be 58 05 ba
       0.010842568 -0.008566208 -0.008354798 -0.0005086771
0000f0 ff 7c 7f 3d 75 2f ee bb 20 7b 5d 3d 30 81 4b 3d
       0.062375065 -0.007268841 0.0540725 0.04968375
000100 78 7a df bb 7a 2a fa bb d8 78 df bb db 2d 86 ba
       -0.0068200193 -0.007634458 -0.0068198256 -0.0010237055
000110 b6 f7 d5 bb 9b e5 f5 ba 36 b3 0d 3d 51 02 f0 bb
       -0.0065297736 -0.0018760444 0.034594737 -0.007324495
000120 01 ae 4d 3d 3e 15 05 bc bc d8 73 ba 25 88 1d bb
       0.05021477 -0.00812274 -0.00093020103 -0.0024037447
000130 1f 31 1e bc bf a7 c8 bc 06 de f0 bb 94 34 d9 bb
       -0.009655266 -0.02449405 -0.007350686 -0.0066285823
000140 da 49 fe bb a4 a5 f7 bb 49 39 16 bc 5b ed 20 bb
       -0.0077602686 -0.0075575877 -0.009168931 -0.0024555537
000150 90 6b d7 bb 70 28 ee bb 54 a4 ea ba b6 2d 1a bc
       -0.0065741017 -0.007268004 -0.0017901757 -0.009410312
000160 36 97 1e bc 4f 61 f1 ba 46 66 20 bc f9 da 29 bc
       -0.009679606 -0.0018415841 -0.009790009 -0.010367149
000170 70 08 1a 3d 6f f2 35 bc 58 86 56 3d 41 ce de bb
       0.037605703 -0.011105164 0.052374214 -0.0067994897
000180 02 80 c0 ba 8a c5 73 bb 6e 85 38 bb c4 15 c7 bb
       -0.0014686587 -0.00371966 -0.0028155702 -0.0060755927
000190 1f 79 e4 bb ff 2e b6 bb 82 ad 0e bc 40 36 63 bb
       -0.0069724466 -0.0055598016 -0.00870836 -0.0034669787
0001a0 08 01 b7 bb 55 dc 7e 3b 48 5c f2 bb 9a 77 d9 bb
       -0.0055848397 0.0038888652 -0.0073962547 -0.006636572
0001b0 e2 71 ad bb ed 01 d5 bb 80 6f 2e 3d aa 4a 01 3c
       -0.005293117 -0.0065004737 0.042586803 0.007891336
0001c0 92 83 04 bc 4d 4e 92 bb a2 d5 42 bb c2 2a f0 3c
       -0.008088009 -0.0044649006 -0.0029729386 0.029317264
0001d0 22 f6 0e bc 64 c0 83 bb 42 ae ef 3c 85 6d ba 3b
       -0.008725675 -0.0040207375 0.029257897 0.0056893253
0001e0 7f 1e 08 bc 8a 6d 23 ba a3 ce ea bb e7 c6 b7 bb
       -0.008308052 -0.0006234279 -0.0071657463 -0.005608428
0001f0 e1 48 c3 bb 72 96 e2 bb ff 38 ef bb 14 c0 f4 bb
       -0.0059596156 -0.006914907 -0.0073004956 -0.0074691866

conv2.lin.weight f4 [128, 256]
000000 d8 81 a0 3d ba 43 e0 3d eb f7 b8 3d 15 88 a1 3d
       0.07837266 0.10950418 0.090316616 0.07887284
000010 4f e1 6c 3d 32 36 79 3d 4f ce b9 3d 30 f7 41 3d
       0.05783206 0.0608427 0.09072553 0.047354877
000020 dd 7f 35 3d c4 42 60 bd a6 95 a2 bd 17 a0 e0 3d
       0.044311393 -0.054751173 -0.079386994 0.10968035
000030 7d b5 b9 bd e2 3e a2 3d 0a f7 0d bd d6 a5 52 3d
       -0.09067819 0.0792215 -0.034659423 0.051427685
000040 6a 32 98 3d b3 88 4a bd 4b 44 80 3d b8 ad e0 bd
       0.07431491 -0.049446773 0.06263026 -0.10970634
000050 bf bf 0b bc d1 78 a0 bd ba d7 e2 3d 7a b2 db 3d
       -0.008529603 -0.07835544 0.11076303 0.10727401
000060 56 22 fb 3d f1 3d bf bd 07 c4 c7 bd b9 55 40 bd
       0.122624084 -0.09337986 -0.09754186 -0.04695675
000070 55 bc be 3d 54 03 91 3c 80 41 3b 3d c7 d6 c0 3d
       0.09313265 0.017701782 0.045716763 0.094159655
000080 be ea 8d 3b 0b 17 5c 3c 2e 4c cf bd 66 f2 56 bb
       0.004330962 0.013433228 -0.10121952 -0.003279829
000090 af f3 06 bd f9 16 ea bc 01 29 bb bd d2 c5 15 3e
       -0.03294724 -0.028575407 -0.0913868 0.14626244
0000a0 7f f9 cd bd 6e 80 9b 3d b3 40 d9 3d 8d 5b f3 3c
       -0.10057353 0.075928554 0.106080435 0.02970674
0000b0 ac ad 8d 3d 74 37 56 3d 90 86 ab 39 4b 3a 64 3d
       0.06917891 0.052298978 0.00032715918 0.055719655
0000c0 eb 17 09 3d 32 dc e6 bd 07 95 a4 3d 62 d7 af 3c
       0.033470076 -0.11272468 0.08036237 0.021465007
0000d0 88 2f 01 3d cd 16 cb bc 15 1a fb 3c 44 a3 8c bd
       0.03153947 -0.024791146 0.030652085 -0.06867078
0000e0 3f 18 27 bc 73 c8 9c 3d b0 b3 6f bd bf e8 1f 3d
       -0.010198652 0.0765542 -0.058520973 0.039040323
0000f0 c8 d9 96 bd b7 0a 6c bd b6 37 4c 3d 2f 80 7e bd
       -0.07365757 -0.057627406 0.049857818 -0.062133964
000100 8a db a3 3d 7e c7 75 bd 12 8b 40 bd 5a f3 3b 3b
       0.08000858 -0.060004704 -0.047007628 0.0028678984
000110 16 79 a5 3d ba d0 24 3d 1a 3f af 3d 8d 09 25 3c
       0.08079736 0.04023812 0.085569575 0.010073078
000120 bd 78 03 3e 6c 92 ea 3d 9a 03 76 3d 45 58 73 3c
       0.12839027 0.11453709 0.06006203 0.014852588
000130 06 ee 4f 3d f9 d4 0d bd af 3f f2 3d a5 fa 17 bd
       0.050764106 -0.034626935 0.11828553 -0.037104268
000140 a6 01 81 3d 81 65 62 bd 29 0a 27 3d 1c f4 89 3d
       0.062991425 -0.055272583 0.040781174 0.06736013
000150 b4 0c ab 3d e6 79 7a 3d 73 fe a4 3d 22 d6 f1 bd
       0.08352032 0.061151408 0.08056345 -0.11808421
000160 90 e3 e7 bc 14 94 49 3c f8 2c d0 bd d2 14 a2 3d
       -0.028306752 0.012303371 -0.10164827 0.079141274
000170 3c 7d 34 be 52 1b 8b 3d 46 8e 99 3d 9d 13 98 3c
       -0.17625898 0.0679232 0.0749784 0.01856404
000180 4b 67 c7 bd a9 e5 c4 bd eb 54 84 3d bb 9b 9c bd
       -0.097364984 -0.09614117 0.06461509 -0.07646891
000190 47 5d 0c 3e ac 73 dd bd e1 65 4a bd 1c 6b a3 bd
       0.13707457 -0.10813078 -0.049413566 -0.07979414
0001a0 8a ef f2 3d e6 cd 8b bc ca 6f d5 3c f2 d0 35 3d
       0.11862095 -0.017065953 0.026054282 0.04438872
0001b0 a9 df d5 bd 13 6b cb bd e2 f1 77 ba c7 ed ee bd
       -0.104430504 -0.09932532 -0.00094583456 -0.11666446
0001c0 1e d7 c1 3c 93 83 78 3d 89 80 4c bd 43 17 58 bc
       0.023662146 0.060672354 -0.04992727 -0.01318914
0001d0 73 78 65 3d 14 64 6e 3c c4 84 d9 bd f7 47 e0 3c
       0.056023072 0.014550228 -0.10621026 0.027378066
0001e0 41 c1 16 3d 45 90 42 3c ef 18 ca 3d 1c c6 d1 bd
       0.036805395 0.011875217 0.09868037 -0.102428645
0001f0 10 60 eb 3d 50 67 55 ba 21 34 58 3d 05 71 3c bd
       0.11492932 -0.00081407 0.05278409 -0.04600622
000200 9b 65 39 3d 1a 84 da 3d 34 1e bf 3d 82 a5 e7 3d
       0.045262914 0.106697276 0.09331933 0.11310865
000210 d6 40 e0 3d ec 20 60 3d f5 84 82 bd ab 4b ab bd
       0.109498665 0.054718897 -0.06373016 -0.08364042
000220 bc 1c 14 3d 41 cd ef bd 25 28 ca 3c 45 fe 6b 3d
       0.036160216 -0.11709071 0.024677346 0.057615537
000230 d6 32 88 3d 4f 71 d3 bc a8 b3 e9 bd a2 02 9b bd
       0.06650321 -0.025810866 -0.1141122 -0.075688615
000240 79 d2 89 bb 7d 37 87 bd 0b be a8 bc a4 53 b1 bd
       -0.0042059985 -0.066023804 -0.020598432 -0.08658531
000250 94 17 e1 bb c1 73 a3 3d ea 2f e0 3a 05 fe f7 3d
       -0.006869266 0.07981063 0.0017104123 0.12108997
000260 9f ca 33 3c 6b d5 7b bd 0e e1 00 bd 91 91 db bc
       0.010973602 -0.061482828 -0.03146463 -0.02680281
000270 1c 97 b2 bd 96 84 f0 bd 23 6b dc bd 86 6a 08 3d
       -0.08720228 -0.11744039 -0.10762622 0.033304714
000280 23 2a 94 3d b7 50 53 bd d9 01 d5 bd 98 b6 84 bd
       0.072345994 -0.051590648 -0.10400743 -0.064801395
000290 12 04 64 bd eb 4a be 3c 5e 68 6b 3d 2b 9f af 3d
       -0.055667944 0.023229083 0.05747258 0.08575281
0002a0 a5 2b c6 bd 74 37 d9 3d 4d 78 8a 3d 05 b2 7d 3d
       -0.09676293 0.1060628 0.06761227 0.06193735
0002b0 18 2a fa 3d cb 2c 01 3e ce 44 1a bd 3f cd a8 bd
       0.1221506 0.12614743 -0.037663274 -0.082422726
0002c0 6e 17 16 bd 57 4e e4 3d 1e 55 66 3d e2 d5 47 bd
       -0.036643438 0.11147755 0.056233518 -0.04878796
0002d0 ab 27 5e bc bf 23 e9 bd 42 4e 5f 3d 5b f7 f8 bd
       -0.013559262 -0.11383771 0.05451799 -0.12156554
0002e0 ea 77 4b 3d 8f eb ed 3d 52 9b 35 bd 84 19 7e bd
       0.049674906 0.11617195 -0.044337578 -0.062036052
0002f0 f1 0a b5 3c 70 76 e1 bd 17 98 34 3d a1 24 7a bb
       0.022099944 -0.11008918 0.044090357 -0.0038168805
000300 bb fa 01 3e 60 b9 8a bd 50 a6 e6 3d f3 28 95 3d
       0.12693302 -0.06773639 0.1126219 0.07283201
000310 c5 2f a3 3d c9 0f a0 bc a7 f4 1b bb 6e 75 42 3d
       0.07968096 -0.019538777 -0.0023796947 0.04747527
000320 49 cc 03 3e cf 26 dd 3c 9a 4f cb 3d a4 0f c0 3d
       0.12870897 0.026996044 0.09927292 0.09377983
000330 bd e6 24 bd c5 c3 34 bd 45 90 c6 3d 7e 5b de 3d
       -0.04025911 -0.044132013 0.09695486 0.108572945
000340 7b 16 0d bd 2f 01 9c bd c9 5f e1 3d a9 00 13 3e
       -0.034445267 -0.07617413 0.11004598 0.1435572
000350 5f c9 00 3e 9c 03 f0 3c 7d 13 10 3b b5 84 75 bb
       0.12576817 0.029298596 0.0021984272 -0.0037463133
000360 dc af 07 3e f6 d5 cd bd 65 a7 24 3d ba 2d 19 3d
       0.13250679 -0.100505754 0.040198702 0.037397124
000370 56 2c 09 3e d0 ea 30 3d 1d d9 a1 bd 2d ce a4 bd
       0.13395819 0.043192685 -0.07902739 -0.080471374
000380 4c ec 86 3d 12 ac 04 bd 38 df e9 3d 26 fa 84 bd
       0.06588039 -0.03239066 0.11419529 -0.064930245
000390 7d 4e 60 bd 34 a4 c6 bc 6c ab cf bd 68 da 22 bc
       -0.054762352 -0.02424822 -0.10140118 -0.009939767
0003a0 11 8f fd bd a7 d0 5b bd 22 68 27 3d 65 81 ce 3d
       -0.123808034 -0.053665783 0.040870793 0.10083274
0003b0 6f 36 e3 3d 7c 47 cc 3d cc ae 1d 3d 44 e0 8a bd
       0.11094367 0.09974572 0.038496777 -0.067810565
0003c0 9c c4 3c 3c ae 60 a3 bd d9 88 01 3e 2d ff 08 bc
       0.011521485 -0.079774246 0.1264986 -0.00836162
0003d0 b7 14 45 bd 0c 04 76 3d f1 0c 78 bd d4 b9 f8 bc
       -0.04811546 0.060062453 -0.060559217 -0.030362047
0003e0 1c f2 ab bc 69 1d 3d 3d 16 4f 04 3d 23 27 a2 bd
       -0.02098947 0.046170626 0.032301985 -0.07917621
0003f0 7b b1 d0 bd fd 57 7c 3d d7 bc 81 3d 18 aa b9 3d
       -0.10190102 0.06160735 0.063348465 0.09065646

conv3.bias f4 [256]
000000 d9 e9 55 3d 3b 0c 54 bd 1c fc 53 3d 2f 44 65 bd
       0.052224968 -0.051769476 0.051754102 -0.055973228
000010 99 a1 ac 3d e6 02 83 bd 23 f3 75 bd fd a8 39 3d
       0.0842926 -0.06397037 -0.060046326 0.045327175
000020 ca d4 81 bd 5c 94 af bd cd e4 a6 3d 6d 16 83 bd
       -0.063394144 -0.08573219 0.08149109 -0.06400762
000030 56 7e a6 3d a9 73 5b 3d d1 9e 99 bd 03 25 76 3d
       0.081295654 0.0535771 -0.07500995 0.06009389
000040 39 32 69 bd 96 78 ee bd c5 9b 8d bd 66 65 bd bd
       -0.05693266 -0.11644094 -0.06914476 -0.09247856
000050 ee e5 78 bd c3 2e db 3d 63 d0 63 bd 17 a8 7e 3d
       -0.060766153 0.107022785 -0.055618655 0.06217202
000060 05 8a 82 3d 73 40 37 bd 94 a2 97 3d 69 82 5c bd
       0.063739814 -0.044739198 0.07404056 -0.053835306
000070 57 6f 4d 3d fe c0 6e 3d 63 77 99 bd d1 ec 8d 3d
       0.05015501 0.05828952 -0.07493474 0.06929935
000080 35 30 8c bd bd 93 b6 3d 28 36 3c bd ce e6 4c bd
       -0.06845132 0.089148976 -0.045950085 -0.0500248
000090 01 b8 4a bd 7e dd 3a bd de 20 df 3d a6 ec a2 bd
       -0.049491886 -0.045621388 0.10894941 -0.07955293
0000a0 cb fb 98 3d 40 d0 56 3d 33 15 7c bd 77 c1 ec bd
       0.07469901 0.052444696 -0.061543655 -0.11560338
0000b0 ef 26 74 bd 6b 1f b7 3d 05 86 40 3d 2d 58 e3 bd
       -0.059607442 0.089415394 0.04700281 -0.111008026
0000c0 8c 42 33 bd 81 47 40 bd 1a a8 6d bd a2 18 98 bd
       -0.043764636 -0.04694319 -0.058021642 -0.07426573
0000d0 71 e7 52 bd 5d 8f 61 bd 66 7f 98 3d 9b be 99 bd
       -0.05149025 -0.055068363 0.07446174 -0.07507058
0000e0 87 c8 99 3d db a4 75 3d ef 9c c0 3d 49 8b b1 3d
       0.07508951 0.05997167 0.09404933 0.08669145
0000f0 89 20 7c 3d 67 ef 60 bd 80 22 89 3d 13 20 88 3d
       0.061554465 -0.054915812 0.066960335 0.06646743
000100 82 87 4a 3d fa 67 de 3d 53 34 64 3d 73 05 57 bd
       0.049445637 0.10859676 0.055713963 -0.05249543
000110 3f 25 5e 3d c5 c9 ed 3d 45 57 7b bd 58 10 9f bd
       0.05423474 0.1161075 -0.061362524 -0.07766789
000120 70 c4 5e bd 71 32 76 3d e4 f7 65 bd f2 e4 3b 3d
       -0.054386556 0.0601067 -0.05614461 0.045872636
000130 ca ce d0 3d a2 b2 3d bd 05 1d 6c bd ff cb 5e bd
       0.10195692 -0.046312936 -0.057644863 -0.054393765
000140 19 43 40 bd 3e cf c2 bd f1 0b a6 bd 1a bc 97 3d
       -0.04693899 -0.095121846 -0.081077464 0.074089244
000150 91 00 94 3d 02 51 44 3d 9e e9 4f 3d e4 35 8f 3d
       0.072266705 0.047928818 0.050759904 0.06992701
000160 63 ac 8d bd 9f 72 6d 3d e7 63 b0 bd bc a5 4f bd
       -0.06917646 0.05797064 -0.08612805 -0.050695166
000170 9b 92 81 bd 6a 45 c9 bd 23 56 a5 3d 7f d9 5d bd
       -0.06326791 -0.09827693 0.0807307 -0.0541625
000180 d1 ee 4b 3d e2 7f 36 bd e6 a6 5a bd 7c a2 38 bd
       0.0497883 -0.044555552 -0.053381823 -0.045076832
000190 e0 07 b4 bd 16 e0 8d bd 41 71 5c 3d ac f9 47 3d
       -0.087905645 -0.069275066 0.053818945 0.04882209
0001a0 33 35 81 3d c5 55 55 3d c2 ab 8f 3d 98 3e 6d bd
       0.06308975 0.05208375 0.07015182 -0.057921022
0001b0 9e 7f 41 3d 0d a4 47 bd 82 bb e8 bd f7 b4 78 bd
       0.047240846 -0.048740435 -0.11363889 -0.060719457
0001c0 46 a2 92 3d dd 8a 3c bd bb 25 7e 3d 33 6a bb 3d
       0.071598575 -0.046030868 0.0620477 0.09151115
0001d0 4e 88 c3 3d c3 b2 58 3d 6c 19 9a bd 7a c5 86 bd
       0.095474824 0.052904855 -0.0752438 -0.065806344
0001e0 0b 0c 6b 3d 2e 58 61 3d 85 97 a6 3d 8e 96 c4 3d
       0.057384532 0.055015735 0.08134369 0.095990285
0001f0 f2 75 af 3d 4f 55 8e 3d 34 3c 9d bd b1 a9 82 3d
       0.08567418 0.06949865 -0.076774985 0.06380022
000200 dd 1c da bd 28 2e cc 3d ab 9a 4f 3d 2f 24 68 bd
       -0.106500365 0.09969741 0.050684612 -0.056675132
000210 79 52 64 3d ff 58 89 bd 0d fc 6a bd 4b 25 70 3d
       0.055742715 -0.06706428 -0.05736928 0.058629315
000220 03 cb 74 3d 81 7f 77 3d a5 7c da bd ad 0c 83 3d
       0.05976392 0.06042433 -0.10668305 0.06398902
000230 15 9e 71 3d f3 a5 56 3d 7f bd a6 3d c9 63 8e bd
       0.05898865 0.052404355 0.08141612 -0.06952626
000240 ad b0 37 bd f0 46 88 3d cf 56 d2 bd b4 c4 50 bd
       -0.044846226 0.06654155 -0.10270464 -0.05096884
000250 87 90 e4 3d 1f de 8c 3d c7 e2 ad bd b7 fc cb 3d
       0.11160379 0.06878304 -0.0849052 0.09960311
000260 a9 d2 94 bd 92 e0 8f 3d e7 33 53 3d a7 a2 8e 3d
       -0.07266743 0.07025255 0.05156317 0.06964617
000270 1e 19 5a 3d ed 67 58 3d d2 37 82 bd 95 b7 46 bd
       0.05324661 0.052833486 -0.06358303 -0.04851492
000280 90 b5 5a 3d dc 33 4c 3d d7 57 4d 3d a9 f7 90 3d
       0.053395808 0.049854144 0.0501326 0.070784874
000290 36 61 65 bd 54 9c 3e bd 11 fd c0 3d 41 6e 39 3d
       -0.05600091 -0.046535805 0.094232686 0.045271162
0002a0 a5 57 89 bd 10 b3 66 3d 64 71 3c 3d 3b 61 dc bd
       -0.0670617 0.05632311 0.046006575 -0.10760733
0002b0 63 b9 5f bd a7 17 95 bd ac 10 63 bd 4d aa 64 bd
       -0.054620158 -0.07279902 -0.05543582 -0.055826474
0002c0 eb 64 63 3d 2c 7b 3f 3d 38 2c aa bd f6 c7 9e bd
       0.055516165 0.046748325 -0.08309215 -0.07752983
0002d0 3d 05 76 bd 59 6b 3b bd 63 e2 d1 3d 0e 86 83 3d
       -0.06006359 -0.04575667 0.10248258 0.06422053
0002e0 d9 39 c2 3d bf 01 6d bd 1b b4 8a bd b2 de 35 3d
       0.0948369 -0.057862993 -0.06772634 0.044401832
0002f0 71 b0 80 bd d5 7e 8b bd fe d8 87 bd fb 44 84 3d
       -0.062836535 -0.06811301 -0.06633185 0.064584695
000300 2e 30 98 3d ae e6 4d 3d 89 f7 c0 3d 80 8a 42 3d
       0.074310645 0.05026882 0.094222136 0.047495365
000310 0d 98 e3 bd f8 68 6e bd 6a 1b c7 3d 2e 37 62 3d
       -0.11112986 -0.058205575 0.09722026 0.055228405
000320 bd 2f 4e 3d 25 1b b3 bd d3 48 97 bd b3 f5 4c 3d
       0.050338496 -0.08745412 -0.07386937 0.050039005
000330 24 fe 71 3d 6f 26 4f bd 77 8e 7e 3d c5 88 86 bd
       0.059080258 -0.050573763 0.062147584 -0.065690555
000340 05 18 62 3d ab 0f 49 3d 2b 28 8b 3d d7 65 c0 bd
       0.055198688 0.049087208 0.06794771 -0.093944244
000350 15 0a a3 bd 3b 01 e2 bd 38 2a 52 bd 75 cc d6 3d
       -0.07960907 -0.11035391 -0.051309794 0.10488216
000360 55 dd 77 3d 60 6a 89 bd 3a 66 9d 3d 71 ba 94 3d
       0.060513813 -0.067097425 0.07685514 0.072621234
000370 ad b5 64 3d 23 08 8e bd 86 b8 ab 3d cf ac 8a 3d
       0.055837322 -0.06935146 0.083848044 0.06771242
000380 bc 4f 83 3d c6 40 ab 3d ec 90 d9 3d 23 71 e1 3d
       0.064116925 0.08361964 0.10623345 0.11007907
000390 b1 3d f6 3d 4b 59 b4 3d c2 43 39 3d 26 22 77 bd
       0.120234855 0.08806094 0.045230635 -0.0603353
0003a0 5d 4d 45 3d f5 06 66 bd 94 92 6b 3d af 78 5e bd
       0.048169482 -0.05615898 0.057512835 -0.05431431
0003b0 63 76 98 bd 3a 75 33 bd e2 a3 6b bd d4 25 b6 bd
       -0.074444555 -0.043812968 -0.057529338 -0.08893934
0003c0 a0 25 51 3d 16 09 6e 3d 13 ff 8a bd f8 5c d9 bd
       0.051061273 0.058114134 -0.06786933 -0.106134355
0003d0 f5 a6 a7 bd ca a0 3c 3d 6c fa 81 bd d7 9a 50 bd
       -0.081861414 0.046051778 -0.06346592 -0.050928917
0003e0 ac 3d 6d bd 0b fc ce bd a1 be 93 bd 67 6f 77 bd
       -0.057920143 -0.10106667 -0.07214094 -0.060408976
0003f0 70 b3 64 3d 79 50 88 3d f6 69 6d 3d 5a d7 60 bd
       0.055835187 0.06655974 0.05796238 -0.054892875

conv3.lin.weight f4 [256, 128]
000000 a5 46 8a 3d ae f7 c6 3c f8 b7 98 3d 6c 21 29 bd
       0.067517556 0.024288025 0.07456964 -0.04129164
000010 64 60 3b 3c 68 4b f6 bd e1 fb c6 bd 14 c4 48 bc
       0.011436556 -0.12026101 -0.09716011 -0.01225378
000020 c9 2a 29 bd 97 79 73 3d 77 c9 9b bd 63 65 84 bd
       -0.04130057 0.05944213 -0.07606786 -0.064646505
000030 fe 82 8f 3c 69 bd 0e bd 98 25 56 bd a2 0d 03 bd
       0.017518517 -0.034848604 -0.052281946 -0.031995423
000040 6b 06 b6 3d c4 27 af bd cc 0d 4d bc dd 6b 71 3d
       0.08887943 -0.085525066 -0.012515496 0.058940757
000050 04 22 bf bd 05 f5 b0 bd 7a fc ba 3d 3f b2 8a 3d
       -0.0933266 -0.08640484 0.09130187 0.06772279
000060 8c 91 21 3b 2a e1 51 bd aa da de 3d ea dc 03 3c
       0.0024653403 -0.051240124 0.108815506 0.0080482755
000070 f4 11 fc bd af f4 a2 bd 65 e0 78 bd 59 4f 2c 3d
       -0.12308112 -0.07956826 -0.060760874 0.04206786
000080 02 b0 57 3c c4 21 e1 bc bc 4e 9d bc f2 af a8 bd
       0.013164522 -0.027481921 -0.019202583 -0.08236684
000090 ed 85 df bd f2 9f 88 bd fa 51 8d bc 32 64 ac 3d
       -0.10914216 -0.06671132 -0.017251004 0.08417548
0000a0 5e 13 f0 3b 8b cf 43 3c a0 69 04 be bc 1b c7 bd
       0.0073265275 0.011951338 -0.12930918 -0.09722087
0000b0 b6 27 ed 3d dc 8d 57 3d b1 df f2 3d f0 13 dc 3d
       0.1157984 0.052625522 0.11859072 0.1074599
0000c0 18 00 7e bd e4 94 b3 bd e3 1f 02 bd 37 d0 9c 3d
       -0.06201181 -0.08768633 -0.03176869 0.07656901
0000d0 74 7f 26 3c 22 89 83 3d 8f cc 8b 3d 20 30 f2 bd
       0.010162223 0.064226404 0.06826126 -0.11825585
0000e0 25 2b 74 3d 16 4f bd 3c 5e 77 21 3d 45 3f 4f bc
       0.05961146 0.023109 0.039420478 -0.012649362
0000f0 32 e9 c2 bd f5 c8 33 3d 06 96 3e 3d c9 f7 2d 3d
       -0.09517135 0.04389282 0.046529792 0.042472634
000100 0e 39 2a bc 10 d4 28 3d 0b 6e c2 3d fd 3b 03 3d
       -0.010389579 0.041217864 0.09493645 0.03203963
000110 ea 53 c8 3d bc 45 df bd 7a 5d c2 bd 35 92 c6 bd
       0.0978163 -0.10901973 -0.094904855 -0.096958555
000120 4f 3c d5 bd ba 05 98 3d bb 3f 35 3d be 5b 90 bc
       -0.104118936 0.07422967 0.04425023 -0.017621871
000130 4c 00 e8 3d 43 aa 00 3d 9e 83 f6 bc 66 a4 78 3d
       0.113281816 0.031412374 -0.030092057 0.060703658
000140 82 8f 85 bd 00 1e 3b bd 58 3d d8 3d 18 0f 40 bd
       -0.065215126 -0.045682907 0.105585754 -0.046889395
000150 b5 42 2a 3d 2f 82 38 bd a7 de 32 3d 8e 71 f1 3d
       0.041567523 -0.045046028 0.04366937 0.11789237
000160 18 7b 8a 3d 69 d6 a4 bc ce fa 2b bd d9 00 b8 bd
       0.067617595 -0.02012177 -0.041987233 -0.08984537
000170 ec f6 0c be f6 c4 fe 3d 40 1e ac bc 19 a0 eb 3c
       -0.13766068 0.12439911 -0.021010518 0.028762864
000180 d8 22 05 bd 80 00 d6 bd 13 f4 b5 bc e9 02 01 3d
       -0.032503933 -0.10449314 -0.02221111 0.031496916
000190 c1 46 f9 bd 94 6d ed 3c b4 88 e8 3c 4b bb 9d 3d
       -0.12171698 0.028982915 0.028385498 0.07701739
0001a0 1a 65 d7 bd a1 e4 28 3d 99 c0 d4 3c 26 02 cc bd
       -0.105173305 0.041233663 0.025970744 -0.09961347
0001b0 3e 16 fd 3d 7c fb 8f bd 68 f2 ad bd 82 de 12 bb
       0.12357758 -0.07030389 -0.08493501 -0.0022410457
0001c0 a7 07 88 3d 08 dd f4 bc d3 22 d0 ba 04 3d ec 3c
       0.066420846 -0.029890552 -0.0015879519 0.028837688
0001d0 12 bb 36 3d 46 37 7c bd e1 c4 9a 3b 7e a9 c9 bd
       0.044611998 -0.06157615 0.004723177 -0.09846781
0001e0 f5 e1 56 bc e7 b4 d6 3d 28 89 de 3d ac 41 48 3d
       -0.013115396 0.10483723 0.10866004 0.048890755
0001f0 e3 51 2e bc ea 3a 99 3c 7b 91 90 3d ae 64 96 3a
       -0.0106396405 0.01870485 0.07058998 0.0011474097
000200 f7 e0 6c 3b 82 15 7b 3c 8f 34 09 3c b4 e1 7d bc
       0.0036144832 0.015324952 0.008374347 -0.015495706
000210 1a 4c e2 bd a4 2b 74 3d 6e 72 ea 3d b5 fd fc 3c
       -0.110496715 0.05961193 0.11447607 0.030882696
000220 d3 4b d0 bd 85 8f 4f 3d 6f d3 75 3c 40 6b 87 bd
       -0.10170712 0.05067398 0.015004023 -0.06612253
000230 b1 10 ca ba f7 8b 9c bd 8e 10 63 bd 97 65 67 bb
       -0.0015416351 -0.07643884 -0.05543571 -0.0035308355
000240 63 1c 43 3b 87 0a d3 3d 8b 50 37 3d 08 8d 50 bb
       0.0029771558 0.10304742 0.044754546 -0.0031822342
000250 80 c1 a4 bc 53 02 cd 3c 5c 63 e7 bc 40 4d 90 3d
       -0.0201118 0.025025522 -0.02824562 0.07045984
000260 63 b5 51 3c 4a 71 cc 3d fa 45 be bd 6d 6e 99 bd
       0.012799594 0.09982546 -0.09290691 -0.07491765
000270 95 a3 c2 3d d3 02 d5 3d 66 9e fe 3c 43 bf bc bd
       0.09503857 0.10400929 0.03108139 -0.09216168
000280 8f 7d d7 bc b0 c8 a9 3d 5e 1a a8 bc 52 8d f9 bd
       -0.026304988 0.08290231 -0.020520385 -0.12185158
000290 f1 82 c9 bd c5 01 f6 bd 6c 26 b6 3d 21 bc d0 3d
       -0.09839428 -0.12012056 0.08894047 0.10192133
0002a0 5d a7 df 3d 1f c0 4a 3d f8 6c 01 bd ec c7 c9 3d
       0.10920594 0.049499627 -0.03159806 0.09852585
0002b0 78 55 d0 bc 7d d1 a1 bd e4 61 d5 bd d1 d0 e7 3d
       -0.02543138 -0.07901285 -0.10419062 0.113191254
0002c0 11 84 67 3d dc 01 f1 bc fd fd 00 3c 91 60 82 bc
       0.056522433 -0.029419832 0.0078730555 -0.015915187
0002d0 a0 54 bf 3d 8d 9a d5 bd 8d 5f dd 3d 20 06 f6 3d
       0.09342313 -0.10429869 0.108092405 0.12012887
0002e0 75 51 58 3d 90 22 c7 bd dc ba c9 bd 0c ca 0d 3e
       0.05281206 -0.09723389 -0.09850094 0.13846606
0002f0 d8 15 ae 3d 74 6c b3 3c 57 53 b0 bc d4 df ba bb
       0.0850026 0.0219023 -0.021524115 -0.005702952
000300 3a 56 d2 3d 4e 10 b4 bd 16 61 c4 3d ec 19 94 3d
       0.10270353 -0.08792172 0.0958883 0.07231507
000310 00 0c c0 3d 10 a4 c9 3c a1 93 3c 3d 89 52 62 bc
       0.09377289 0.024614364 0.046039227 -0.013813623
000320 0a 6e 1c 3d f0 dd 36 bc 57 be f9 3d ca 1d bf 3d
       0.03819088 -0.011161312 0.121945076 0.09331854
000330 f7 4a 88 bd 8e af 5c 3d 7f 09 07 bd 5a 67 89 3d
       -0.066549234 0.05387836 -0.03296804 0.06709166
000340 b9 db 97 3d 4e c3 0e bd d8 88 fd 3d fb 68 51 bd
       0.07414956 -0.034854226 0.123796165 -0.051125508
000350 17 cc e4 bd b1 63 96 bd 88 4a 4d bd 20 86 bf bd
       -0.111717395 -0.073432334 -0.050119907 -0.09351754
000360 ce d2 59 bd 67 ed 80 3d 9f 3c d4 bd 55 3e b2 bc
       -0.053179555 0.06295281 -0.10363125 -0.021758238
000370 08 46 d6 3c bc 1d 91 bd 2d d6 25 3e ed ce d4 bb
       0.02615644 -0.070857495 0.16194983 -0.006494394
000380 72 6d a2 bd 3f a8 da 3a f3 28 99 3c 97 cf b8 3c
       -0.07931031 0.0016682221 0.018696284 0.022559924
000390 c6 a6 8b 3d bb f5 e9 ba 2a 6c 15 bd 8a a7 09 3d
       0.06818919 -0.0017849723 -0.036480106 0.033607043
0003a0 b9 6c 9d bd c1 57 d9 3d 17 46 a4 bd 7d 93 26 bd
       -0.07686753 0.10612441 -0.08021181 -0.040668
0003b0 17 e0 ab bd 29 bc 9d 3b 2f 35 0b 3e 9d cf f0 bd
       -0.08392351 0.00481369 0.13594507 -0.11758349
0003c0 72 29 b4 bd 5f 36 b9 3d ea 83 a9 bd 4d 08 2f 3c
       -0.087969676 0.090435736 -0.08277114 0.010683131
0003d0 b2 3b d0 bd db 9e c0 3d 3a e0 85 bc bd 5a cc bd
       -0.10167636 0.09405299 -0.016342271 -0.099782445
0003e0 68 99 ad bd 72 a2 08 3b 40 b6 95 bd 86 44 54 bd
       -0.084765255 0.0020848778 -0.07310152 -0.05182316
0003f0 c5 55 c0 3d 8c cb e5 3d 93 74 9e bc b4 ed da 3c
       0.09391359 0.11220464 -0.019342696 0.026724674
