gcn_model.pth (torch, 315676 bytes, 6 tensors)

conv1.bias f4 [256]
000000 93 ff 86 3b f5 e8 23 bc 56 a7 6f 3c 0d ec 18 3c
       0.0041198223 -0.010004272 0.014627298 0.009333623
000010 b9 77 3d 3c 3f 10 21 bc d2 74 75 3c b8 63 04 bc
       0.011564189 -0.0098305335 0.014981465 -0.008080415
000020 28 b1 c9 bc 0f 88 1c 3c 3f f5 3b 3c 11 d8 1e 3c
       -0.024620607 0.009553923 0.011472045 0.009695069
000030 bf df 17 3c 12 46 af 3c 05 ab 17 3c 1d e0 19 bc
       0.009269654 0.021395717 0.009257083 -0.009391812
000040 a6 18 74 3c 96 2f a0 3b 45 18 5a 3c 74 ce 0e bc
       0.014898455 0.004888485 0.01331145 -0.008716214
000050 c6 79 8e 3c 7e 4b e1 3b 63 d7 cb 3b 52 12 43 3b
       0.01739205 0.0068754544 0.0062207445 0.0029765558
000060 2f d5 17 3c bc db 20 3c 24 fb 53 3c 27 a9 41 bc
       0.0092671355 0.009818014 0.012938295 -0.011820114
000070 5c cd 1a bc 5e 9d 25 bb 77 d3 71 3c 27 af be 3b
       -0.009448376 -0.00252708 0.01475989 0.0058192196
000080 d2 0e a6 bc 6e fb ce 3c 9b d3 c6 ba 80 8a ff ba
       -0.020270739 0.025266375 -0.0015169265 -0.0019496232
000090 e2 61 e3 3b b1 b5 e3 bb 1a 4f 52 bc 06 18 0c 3d
       0.006939159 -0.0069491495 -0.012836242 0.034202598
0000a0 b5 8c 67 bc c1 5d 21 3c 7c df 2a 3c c7 60 1a 3c
       -0.014132668 0.009849013 0.010429259 0.009422488
0000b0 7a a9 52 3c 72 c0 1a 3d a7 dd 00 bc 7c 83 c6 3b
       0.012857789 0.037781186 -0.007865346 0.0060581546
0000c0 39 9a 12 3c a5 6b 31 3b 45 e8 6b b9 4f 88 7f 3b
       0.008947902 0.0027072218 -0.00022497874 0.0038991158
0000d0 7f 97 ec 3b 17 28 c7 3b 68 09 ad bc 9e 22 5f 3c
       0.007220208 0.006077777 -0.02112265 0.013619093
0000e0 df 4c d1 3c 19 c4 3e 3c 83 8c 27 3c ae 1a 14 3b
       0.02554935 0.011643433 0.010226372 0.002259891
0000f0 f8 a6 df ba 08 6b fe 3b db 57 42 3b 52 28 c0 3b
       -0.001706331 0.007764224 0.0029654417 0.0058641816
000100 a0 06 7d 3b 87 9d 58 3c 51 22 76 3c 91 77 7c 3c
       0.0038608685 0.013221151 0.01502283 0.015409366
000110 48 0b 76 bb 94 80 20 3c 93 62 23 3c e4 c8 19 3c
       -0.0037543345 0.00979628 0.009972232 0.009386275
000120 3e 25 30 bc 5a a6 ef 3b 12 b6 89 3b c3 d0 2e bc
       -0.010751067 0.007313532 0.0042026127 -0.01066989
000130 58 ea 42 3c 68 8b f5 3b 1c 33 1d 3c 54 d0 3b 3c
       0.011896692 0.007493425 0.009594705 0.0114632435
000140 99 6a 29 bc 50 30 51 bc 4b fd 1b bc 74 ed 80 3c
       -0.010340356 -0.012767866 -0.009520839 0.015738226
000150 05 8c 32 3c 22 ed 19 bc 92 03 2d bb 1a 3e 18 3d
       0.010897641 -0.009394916 -0.0026399833 0.0371686
000160 65 c5 09 bc cf 19 14 3c 29 a0 1e 3c 11 11 22 3c
       -0.008408879 0.009039356 0.00968174 0.009891764
000170 36 5b dd 3b db a2 68 3b cb 7a e1 3b 36 a7 21 3c
       0.006755258 0.003549746 0.006881093 0.009866526
000180 57 e5 55 3b 06 09 11 3d c2 e8 38 3c 8c 61 01 3b
       0.0032637918 0.035408996 0.011285963 0.001974198
000190 d1 d2 88 3c c9 ab 29 bb 12 59 af 3b 4f 72 71 bb
       0.016702088 -0.0025889745 0.005351194 -0.0036841815
0001a0 c9 23 e6 3b 1c de 98 3c 0f 64 2c 3c 5a a5 19 bc
       0.007023309 0.018660598 0.010521903 -0.009377802
0001b0 d1 87 ed 3b 04 38 fe b9 fc 75 cc bb 4e 92 c2 3b
       0.0072488566 -0.0004848839 -0.006239651 0.005937851
0001c0 ab 24 b9 3b be 42 07 3c f3 72 20 3a b6 d6 d1 3b
       0.005650123 0.008255659 0.00061206444 0.0064037694
0001d0 24 65 58 bc 53 af 15 bc 14 7c 7d 3c 73 3f 3b 3c
       -0.013207708 -0.009136039 0.015471477 0.011428702
0001e0 ad 3d 0e bc 32 ec a2 3b ec 68 2b 3d 5a 55 12 3c
       -0.008681697 0.0049720043 0.04184811 0.008931482
0001f0 32 92 1d bc e8 30 18 3c db 40 e7 3b e2 77 1c 3b
       -0.009617375 0.009289004 0.007057292 0.0023875167
000200 32 d9 2f bc e6 ad 2d 3c 25 fe d4 3c fb c4 25 bc
       -0.010732936 0.010600543 0.026000092 -0.010117765
000210 75 54 c9 bb 3f bc ed 3b 9b 87 6e 3b ca 64 ac 3b
       -0.0061441013 0.0072551067 0.0036396745 0.0052610384
000220 7e ec 38 3c fe 10 0b 3c 29 45 00 3d cd f7 2f bc
       0.011286853 0.008487938 0.031315956 -0.010740233
000230 e2 80 4c 3c 4c 07 bf 3b 62 df 4c bc 7b b8 23 3c
       0.0124819 0.0058297273 -0.0125044305 0.009992714
000240 8d 3d 83 3c 47 be 66 3c f7 bf 25 3c 7c 59 0f 3c
       0.01602056 0.014083452 0.010116569 0.008749362
000250 34 f4 2a bc a7 1a 1c 3c ae d6 aa 3c 34 30 fa 3b
       -0.010434199 0.009527839 0.02085432 0.007635141
000260 90 a1 57 3c b1 08 2e 3c 71 6c e3 3b c8 b3 32 3c
       0.013161078 0.010622189 0.0069404175 0.010907121
000270 36 d5 54 bb ee a9 b1 3c fb 67 81 3a ea cd ef 3b
       -0.0032475716 0.021687474 0.0009872908 0.007318248
000280 8a 2f 22 3c 2d 41 30 3c 11 74 a9 3b 7b 85 7e 3b
       0.0098990295 0.010757727 0.005171307 0.0038836885
000290 be cb 7b bb 18 03 88 3b 89 22 c1 3c 54 fc e4 3b
       -0.0038421 0.0041507594 0.023576038 0.0069880877
0002a0 2b b2 31 bb c5 b9 df 39 ab 84 40 bc a0 8f e1 3b
       -0.0027114253 0.00042672284 -0.0117503805 0.0068835765
0002b0 31 9f 94 3c ac 62 9a 3c a7 4b 82 39 d0 45 2b 3c
       0.018142315 0.018845879 0.00024851898 0.010453656
0002c0 ca 21 2b 3b 48 7d 06 3c 51 50 8f bb 04 30 76 3c
       0.002611267 0.00820858 -0.004373588 0.015026096
0002d0 90 62 f3 bb fe 78 19 3c ab 99 e7 ba 32 f2 b4 3c
       -0.007427521 0.009367226 -0.0017669698 0.022088144
0002e0 29 4e 4b 3c 7c 28 d6 bc b1 b3 1d 3c 2c 7a 88 3c
       0.012408772 -0.026142351 0.009625361 0.016659819
0002f0 c2 36 f4 3b 0d d0 6b 3c e4 7b 5a bc e9 e4 5f bc
       0.0074528167 0.014392865 -0.013335202 -0.013665416
000300 1e 14 4d 3b b8 4d 4f b9 80 bc 95 3b 92 31 16 3c
       0.0031292508 -0.00019770011 0.00456959 0.009167092
000310 1c d1 3f ba 30 27 10 3c 8b 18 a0 3c 78 11 ff bb
       -0.00073172315 0.0087984055 0.019542953 -0.007784065
000320 c6 fd e9 3b 23 54 5e 3c 19 09 40 bc 35 d7 01 3b
       0.007140848 0.013569864 -0.011720919 0.0019812111
000330 02 16 3a 3c 8b 2c 8a 3b 43 9d 0c 3b 32 0c 03 bc
       0.011357786 0.0042167357 0.002145604 -0.007998513
000340 f4 ac 78 3c d4 4c 80 3c de fe 60 b8 42 23 31 3c
       0.015177954 0.015661635 -5.3643125e-05 0.010811629
000350 59 79 08 3b 49 e8 81 3c fd 03 26 bc ea 65 f3 3b
       0.0020824282 0.015857833 -0.010132787 0.0074279206
000360 25 61 50 3c 80 a9 cd 3b 0e 6c 4e bc 6c 19 0d bb
       0.012718474 0.0062763095 -0.012599004 -0.0021530045
000370 5a ac 71 3c 5c b2 a2 bb 6a f8 56 3c bd b7 88 3c
       0.0147505645 -0.0049651098 0.01312075 0.016689176
000380 c4 ea a4 3c 07 92 f2 3a 63 63 d0 3b 44 de 3a 3c
       0.020131476 0.0018506654 0.006359504 0.011405531
000390 8e aa 2e 3c 13 2d bc bb 29 8e 09 bc 52 84 81 bb
       0.010660781 -0.005742678 -0.00839571 -0.0039525414
0003a0 82 4c 91 3c fa fe 2c 3c 8a 24 30 bb a2 7a 0e 3c
       0.017736677 0.010558838 -0.0026877248 0.00869623
0003b0 d6 e6 88 3c 14 2d c3 3c 97 dc 51 bc 9d 95 c5 3b
       0.016711634 0.023825206 -0.01280894 0.006029798
0003c0 b4 da 9d 3c cd 95 7a 3b 0b 86 2b 3c 6d 41 59 bb
       0.019269325 0.003823626 0.01046897 -0.003315057
0003d0 4f bc ae 3a e0 d3 5f 3b a4 da af bb 0f 9d a7 b9
       0.0013331267 0.0034153387 -0.00536664 -0.0003196974
0003e0 bb 2f 3e bc a5 d1 cb b9 90 d7 2f 3c c0 a1 15 3c
       -0.0116080595 -0.00038875375 0.010732546 0.0091328025
0003f0 fe b7 18 3c aa df 19 3c e4 d6 db 3b 33 92 90 bc
       0.009321211 0.009391705 0.0067089666 -0.017647838

conv1.lin.weight f4 [256, 47]
000000 6f c2 92 3d 5d e7 ca bd 56 9c aa 3d 97 dc 0f be
       0.071659915 -0.0990741 0.083306 -0.14048992
000010 05 4e ef bd 29 24 07 be a5 9d eb bd 6a d8 45 bd
       -0.11684803 -0.13197388 -0.11504678 -0.04830209
000020 01 7c 89 bc 50 39 b9 3d 10 7b a1 3d bb c8 ea bc
       -0.016782762 0.090441346 0.078848004 -0.028660169
000030 8b 1d ec bd 9f d3 32 3c 83 e8 a8 bd 40 ec f2 bb
       -0.115290724 0.010914712 -0.08247473 -0.007413417
000040 53 d1 a2 bd d7 54 de 3c b9 67 08 3e 25 b5 bd 3d
       -0.07950082 0.027140064 0.13320817 0.09263066
000050 77 91 34 3d f2 8d 8f bd af a4 08 3e 4a ce 89 3d
       0.04408404 -0.07009496 0.13344072 0.067288
000060 c0 a9 ea 3c 1f 97 83 3d e5 c2 f6 3d 9a 58 4b bc
       0.028645396 0.064253084 0.12048892 -0.012411261
000070 aa f0 13 be a1 b4 0c bd 10 a6 bf bd db 72 0d 3e
       -0.14447275 -0.03435195 -0.09357846 0.13813345
000080 a3 3e 55 bd 5d 91 fd 3d b1 53 a8 3c 19 0a f8 bd
       -0.05206169 0.123812415 0.02054772 -0.12111301
000090 82 73 e1 bd 22 ba 2d 3b 1b cb ff 3a 5a 15 d7 3d
       -0.110083595 0.002650865 0.0019515486 0.10502119
0000a0 6b 99 d5 3d 4a 86 0f bd 53 d6 dd bd d4 1e 88 bc
       0.10429653 -0.035040177 -0.10831895 -0.016616262
0000b0 df 16 8f bd 51 a5 00 3e dc 84 a0 bd 87 4c 52 ba
       -0.06986784 0.12563063 -0.07837841 -0.0008022268
0000c0 25 1f ec 3d 67 e1 40 3d d4 53 b8 bd 8b e8 7a bd
       0.11529378 0.04708996 -0.09000364 -0.061256927
0000d0 c8 e7 f8 bd 1c 4d ab bd 82 62 16 bd 38 49 bc 3d
       -0.12153584 -0.08364317 -0.036715038 0.09193653
0000e0 5f a2 05 be 4c 9e 31 bd 1d 6c d8 bd dd c3 55 3d
       -0.13050221 -0.043363854 -0.10567496 0.052188743
0000f0 92 4a 10 3e 4a 22 ed 3d ee bb 00 3e c7 8a f9 3d
       0.14090946 0.11578806 0.1257169 0.12184673
000100 08 08 99 3d f6 a9 f8 3d 76 75 fd 3d bc 0f 0d be
       0.07472235 0.121417925 0.123759195 -0.13775533
000110 a7 b8 8c bd da 34 c0 bd e6 43 49 3d 86 42 da 3d
       -0.06871157 -0.09385081 0.04913702 0.106572196
000120 0e 29 04 3e 75 93 fa 3d 7a 4f d7 3d 03 e2 12 bd
       0.12906286 0.122351564 0.10513206 -0.035860073
000130 90 62 0c 3d ae 54 96 bd 9f cd c7 bd 20 b0 ce bc
       0.034273684 -0.0734037 -0.09756016 -0.025230467
000140 14 bb 6e bd dd 25 70 3d fa d4 ee 3d 1e 0d c2 3d
       -0.05828388 0.05862986 0.11661716 0.09475158
000150 cb bd 6f 3d cc 3f c1 bd ab 8f cf bc e6 ec 6e bd
       0.05853061 -0.094359964 -0.02533706 -0.058331393
000160 d7 de 00 3b bc 5b 29 bc f6 aa de bd c6 c9 cb bd
       0.0019664073 -0.010336813 -0.10872452 -0.099505946
000170 ed 68 b4 3d ea 74 24 bd a9 08 f7 3d 3e 6b b2 bd
       0.088090755 -0.04015056 0.12062199 -0.08711861
000180 7c bf e2 bd 22 17 d7 3d b0 96 78 bd b0 a8 cd 3c
       -0.11071679 0.10502459 -0.06069058 0.02510485
000190 f4 d5 a5 3d 7f 3a e0 bd fc b3 a6 bb b3 02 00 bd
       0.08097449 -0.10948657 -0.005087374 -0.031252574
0001a0 1a de 2c bb c3 a5 05 3d 06 41 6a 3c cf 62 1a 3d
       -0.00263775 0.032628786 0.014297729 0.037691887
0001b0 5c 00 b6 bd 7e ed b5 3d e3 be 11 3e 3b bd 0f bc
       -0.08886787 0.08883189 0.14232974 -0.008773143
0001c0 2d 8f 9d 3c 83 17 f6 3d ae 1f ab bd 74 f3 06 3e
       0.01923331 0.12016203 -0.08355652 0.13178807
0001d0 25 1b 71 3d e6 e5 c2 3d 36 4f d7 3d 1d 7f c6 bd
       0.058863778 0.09516506 0.10513155 -0.09692214
0001e0 8a 84 11 bc 82 88 cb bd b2 10 81 3d df b5 14 bd
       -0.008881697 -0.09938146 0.063020125 -0.03630626
0001f0 58 9d 7e bd 90 9e b9 3d 4f 9e 95 bd 5b 4f e7 3d
       -0.062161773 0.090634465 -0.073055856 0.11294433
000200 b9 50 df bd 79 86 76 3b e6 8a 41 bc fb de a2 bb
       -0.109040685 0.0037616773 -0.011812901 -0.004970429
000210 a6 ff 70 3b af 46 df 3d d9 e8 9c 3b ea 42 1f 3d
       0.0036773472 0.10902154 0.0047885 0.038882174
000220 e9 c7 30 3d 61 e9 9c 3c 99 ce fd 3b ff 06 06 3c
       0.0431594 0.019154252 0.0077455756 0.008180379
000230 25 ad f9 bd 31 30 b6 bd 5f 2c 4e bd 81 4f de bd
       -0.12191228 -0.088959105 -0.050335284 -0.10855008
000240 f7 72 dc 3c 72 6e b9 bd 29 4e 0a 3e 78 21 91 3d
       0.026910288 -0.09054269 0.13506378 0.07086462
000250 dc eb ae bb 93 a3 c8 3d a2 73 81 3d 82 3b 96 bd
       -0.005338175 0.09796824 0.06320883 -0.07335569
000260 6a 4c a9 3d 11 54 aa 3d fe 3b c8 bd 36 5a fd bc
       0.08266528 0.08316816 -0.097770676 -0.030926805
000270 39 4c 88 bd 39 11 81 bd d5 15 ba 3c 06 46 24 bd
       -0.06655163 -0.06302113 0.022715488 -0.040105842
000280 3d ef c0 bd 50 a3 fa bd 52 57 05 3e 90 0d e1 3d
       -0.09420631 -0.12238181 0.13021591 0.10988915
000290 d2 4c 89 3d 81 fe 17 3d d5 ea f9 bd bb 62 e3 3d
       0.067041054 0.03710795 -0.12202994 0.11102816
0002a0 5e b9 5f 3d 7d b1 9f 3d 93 fb 0a 3e b5 d8 e6 3d
       0.05462014 0.07797525 0.1357253 0.11271802
0002b0 3f 37 b5 bd cd f2 8a bd d9 00 21 3c a4 00 76 3d
       -0.08848428 -0.06784592 0.009826862 0.060059205
0002c0 14 5d d8 bc 47 f6 a9 3c 65 58 b4 bd 2f 2a f5 bd
       -0.02641157 0.020747317 -0.088059224 -0.119709365
0002d0 16 96 ce bc 66 ad 7c bd 66 22 05 be b5 dd 5e 3d
       -0.02521805 -0.061688803 -0.13001403 0.054410655
0002e0 1c 2c 72 bd a1 c6 ee bd 68 59 a3 bd 33 14 1e 3c
       -0.059124097 -0.11658979 -0.07976037 0.009648371
0002f0 78 ee f3 bd 41 ac 82 3c 85 eb a2 3b a3 81 92 bd
       -0.11910719 0.015951278 0.004971924 -0.071536325
000300 2c 56 ea bd 4c 80 55 bb 31 fe 83 3d d5 1d de 3d
       -0.11442217 -0.0032577692 0.064449675 0.10845534
000310 22 c7 f6 3d 5a 6a 91 3d 67 2d c5 bc 6e b5 ee 3d
       0.120497 0.07100363 -0.024069501 0.11655699
000320 93 22 0a be c9 f4 cf bc 17 1a 00 3d 86 c8 d0 bd
       -0.13489752 -0.025385277 0.03127488 -0.10194497
000330 85 6a e1 bd bd e1 ca 3d a2 29 99 3c 02 d4 b3 3d
       -0.11006645 0.099063374 0.01869661 0.08780672
000340 f9 12 f2 3d d1 cc c5 3d c7 ac 03 be 3a 8a 53 3d
       0.11820025 0.09658206 -0.12858878 0.051645495
000350 15 53 4d ba d5 1e 10 be 09 19 c1 bd bc 53 30 bd
       -0.00078325096 -0.14074261 -0.09428603 -0.043048605
000360 60 78 d3 bd 65 50 bd bb 79 93 5c 3d 74 6a d4 bd
       -0.10325694 -0.005777406 0.05385158 -0.10371867
000370 27 d6 dd bd ae 35 a4 bd c1 dc 82 bc cf 0a 7b bc
       -0.10831862 -0.08018051 -0.015974404 -0.015322401
000380 a7 59 6b bc 63 ca c2 3d 8c b8 06 3d ff 8f cb bd
       -0.0143646365 0.095112585 0.03289084 -0.099395745
000390 d9 47 18 3d a4 cf 06 be 02 f3 c0 3d 7d a0 d8 bc
       0.037177894 -0.13165146 0.0942135 -0.026443714
0003a0 88 54 0c 3e ef d9 0c 3e e5 fd 1e 3d 10 31 b7 bd
       0.13704121 0.1375501 0.03881635 -0.08944905
0003b0 66 8a 03 be f3 cc 1b be 17 7d 86 bd 85 01 a4 3d
       -0.12845764 -0.152149 -0.06566828 0.08008102
0003c0 ac b7 2b 3d 41 58 d0 3d 9e c8 9b bd ce 32 04 3c
       0.04192321 0.10173083 -0.07606624 0.008068753
0003d0 33 5b c7 bd 1e 81 da 3d 28 9c 6c 3d b2 58 aa 3d
       -0.09734192 0.106691584 0.05776611 0.083176985
0003e0 d2 39 55 bd 8d 92 f7 3c 3a 19 15 3d 42 e9 60 3d
       -0.052057095 0.030221248 0.03640101 0.054909952
0003f0 4c 50 0f 3d 9f 01 cd 3d ee 18 86 bd 64 c4 f6 3d
       0.034988686 0.10010075 -0.06547724 0.12049177

conv2.bias f4 [128]
000000 41 94 cc bb ca 20 ba bb db f4 b8 bb a0 89 d7 bb
       -0.006243259 -0.0056801783 -0.0056444234 -0.0065776855
000010 6b 40 c1 bc af 4a 3c ba 5d 07 23 3b 9b 46 d2 3c
       -0.023590287 -0.00071827596 0.0024876215 0.025668433
000020 e2 91 33 bb f1 0c ef bb c5 50 90 bb a9 aa cf bb
       -0.0027400185 -0.007295244 -0.0044041597 -0.006337483
000030 d8 2c 00 3b c7 6b c5 bb 1a 40 39 3d 60 b3 4b 3d
       0.001955798 -0.006024811 0.045227148 0.049731612
000040 38 80 2c 3c 73 84 6d bb e1 5f 9b 38 a0 50 90 ba
       0.010528617 -0.0036242276 7.408835e-05 -0.0011010356
000050 ee 94 b8 bb dd 13 de bb 2c 7c e1 ba f8 02 c7 ba
       -0.005632988 -0.00677727 -0.0017203144 -0.001518338
000060 c1 85 0a bc 75 e7 e5 bb 0e 8f 4b 3d b4 b8 05 3b
       -0.008454741 -0.007016117 0.049696974 0.002040428
000070 d8 e5 cb ba c4 1c a1 ba 6c 54 25 3d 38 c5 6a 3d
       -0.001555617 -0.0012291898 0.040363714 0.05731699
000080 f2 33 44 bb c9 73 8a bc 98 63 05 bc f0 80 94 ba
       -0.0029938188 -0.016900914 -0.008141421 -0.001132993
000090 2c b6 87 bb fa fe 9b bb 94 1a f0 bb 51 d3 87 bb
       -0.0041415896 -0.00476062 -0.007327387 -0.004145064
0000a0 16 e4 bb bb a3 35 cb bb 26 f1 af bb ec 3d 9a bb
       -0.005733977 -0.0062014624 -0.0053693233 -0.0047070887
0000b0 c3 31 1c bb e4 ca 90 bc fd d4 15 ba 59 3a 2d 3d
       -0.0023833371 -0.01767487 -0.00057156367 0.042291973
0000c0 f1 b9 e9 bb 19 0f e5 bb c1 1b 12 bc ca 29 c2 bb
       -0.0071327616 -0.006990325 -0.00891775 -0.005925392
0000d0 69 89 2b bb 33 fb 60 3b b4 86 d9 bb e8 69 a7 bb
       -0.0026174432 0.0034329414 -0.0066383723 -0.0051090606
0000e0 db 03 5c 3d e7 bb f2 bb 15 6c 19 3d 24 a5 9f ba
       0.053714614 -0.0074076536 0.03745659 -0.0012179953
0000f0 68 28 35 bc 40 9d ac bb 26 98 4d bb 9b 0f a0 bb
       -0.011056997 -0.005267769 -0.0031371205 -0.004884673
000100 81 f9 c7 bb 55 21 c0 3a 83 c6 dc bb f8 2f eb bb
       -0.006102741 0.0014658371 -0.0067375316 -0.007177349
000110 15 af 96 bb 54 67 f5 bb d5 5b b6 bb b4 d8 9c b9
       -0.004598508 -0.0074891243 -0.0055651464 -0.00029916095
000120 c0 5d ef bb ba 86 e3 bb ec 5c ea ba b2 fa 01 bb
       -0.007304877 -0.006943551 -0.0017880476 -0.0019833264
000130 9e d2 15 bc c1 65 72 3b 18 60 c6 bb 18 0e c8 bb
       -0.009144453 0.003698692 -0.0060539357 -0.0061051957
000140 ca fe 1d 3a 20 e9 1c bb d8 aa e9 bb 9d b2 cb 37
       0.0006027041 -0.0023942664 -0.007130962 2.4282659e-05
000150 27 fd 0a bb d8 3a e5 bb b9 15 4a bc 8f 4a a4 bb
       -0.002120802 -0.00699554 -0.012334281 -0.005013771
000160 08 fc f1 bb 34 45 3d 3c 90 80 0f bc c5 34 c1 39
       -0.007384781 0.011552144 -0.008758679 0.00036851145
000170 9e ee e9 bb c6 12 c6 bb ea 18 76 bb f3 5c a9 3c
       -0.007139041 -0.0060447184 -0.003755147 0.020674204
000180 22 0c c1 bb 04 98 21 3a 42 b9 2c 3d 2d 3e ef ba
       -0.005891339 0.00061643147 0.042168863 -0.0018252783
000190 7f c7 da bb 9c 85 9e bb b6 f9 c5 3c 39 67 47 ba
       -0.006676614 -0.004837705 0.024166923 -0.0007606629
0001a0 80 71 ef bb 55 85 99 ba 16 8a f0 bb 84 48 16 bc
       -0.0073072314 -0.001171271 -0.00734068 -0.0091725625
0001b0 35 48 e0 bb 8d de 97 39 cb 7d d8 3c 07 82 55 3d
       -0.0068445452 0.00028966778 0.02642717 0.052125957
0001c0 cc d1 a3 3c 94 94 e8 b9 26 f4 da bb ef 95 27 3c
       0.0199975 -0.00044361188 -0.006681937 0.010228618
0001d0 7e 10 06 3c df cc 83 3a 58 e6 0c bc fe 47 70 bb
       0.008182643 0.0010055563 -0.00859984 -0.0036664004
0001e0 c0 b7 21 bc 29 7c 53 bc 13 8a da bb a3 9c e6 bb
       -0.00987047 -0.01290802 -0.0066692918 -0.0070377155
0001f0 b3 6d dd bb cc 6b 62 3a 47 bf 27 bc c1 0c d9 bb
       -0.006757462 0.0008637279 -0.010238475 -0.006623835

conv2.lin.weight f4 [128, 256]
000000 f4 f0 46 3d 9b 8f a2 3d b3 bb 35 3d 5b d5 d7 3d
       0.048569635 0.07937547 0.044368457 0.10538741
000010 8c 81 2f bd 61 77 71 3b 71 3b 63 bd d9 d8 b0 bd
       -0.042848155 0.0036844837 -0.05547661 -0.086351104
000020 db ef 9f bc 13 b3 c6 bd 29 3d 14 3d 0f b3 a8 3a
       -0.019523552 -0.097021244 0.03619114 0.0012870746
000030 36 cc a0 3d 5c d0 cc bd 37 67 14 be b7 b2 43 3a
       0.0785145 -0.10000679 -0.14492498 0.000746529
000040 83 df 75 bd dd 14 43 3d f0 07 43 bd c1 34 55 3d
       -0.06002761 0.04762732 -0.04761499 0.052052263
000050 a3 53 89 bd 67 4a 29 3c e5 4c 88 3d 02 d8 96 3a
       -0.067054056 0.01033268 0.066552915 0.0011508467
000060 8a 14 0b bd c9 8f d9 3d 10 d7 26 3d 32 fb 0c bd
       -0.033955134 0.10623128 0.040732443 -0.034419246
000070 9e 46 e4 bd 02 88 1f 3d de e9 5a bd 2b 00 a0 bd
       -0.11146282 0.038948067 -0.05344569 -0.07812532
000080 4a f5 86 bd 7c 72 41 bd 0c 9b f7 bc a3 d9 97 3c
       -0.06589754 -0.04722832 -0.0302253 0.018536394
000090 5c 64 cf 3d dd d3 9d bd 66 46 85 bd bb 52 3b 3d
       0.10126564 -0.07706425 -0.06507568 0.045733195
0000a0 0c e1 f0 bd e4 7c ea 3d 7b f7 b1 bd 8a 36 af 3c
       -0.11761674 0.11449602 -0.08689781 0.021388311
0000b0 bf 5c b5 3d 59 38 63 3d dc ed c2 3d 55 52 c3 bd
       0.088555805 0.05547366 0.09518024 -0.09537188
0000c0 d5 02 9c bd 2a 3c 87 3c ab 29 29 bd b4 42 d5 3d
       -0.07617728 0.01650818 -0.041299503 0.10413113
0000d0 dc 90 18 3c e5 f9 70 3c 8a df 4d 3d 9d 1d b6 bc
       0.009311881 0.014708017 0.05026201 -0.022230918
0000e0 e9 2c 20 3d 2f 56 e1 3c 99 14 e7 bd ea 09 d8 3d
       0.03910533 0.027506916 -0.112832256 0.10548766
0000f0 5b 21 2f bd ef 4a 11 bd 3a ab 8c 3c 39 5a c2 bd
       -0.04275642 -0.035471853 0.017171491 -0.09489865
000100 fe fc 84 3d 84 45 a4 3d 82 1d 88 bc b9 cd 45 3d
       0.06493567 0.080210716 -0.016615633 0.048291896
000110 54 fd be bd cc ab e1 bd 49 aa 8a 3c a8 bd 11 bc
       -0.09325662 -0.11019096 0.016926901 -0.008895315
000120 12 72 07 3d 56 45 74 3d 95 b0 78 3d cf ab 6e bc
       0.03306777 0.059636436 0.060715277 -0.01456733
000130 cc 7f 8b bd 30 6d 27 bd d6 5b f3 3d 09 0c ec 3d
       -0.06811485 -0.040875614 0.11882751 0.11525733
000140 3d 57 dd 3c dd 28 ae 3d 03 a8 8d 3d 46 64 02 3e
       0.027019138 0.08503888 0.06916811 0.12733564
000150 46 f5 8b bb 00 fe ab 3d 9d 14 eb 3d b9 bb ba bd
       -0.004271182 0.08398056 0.11478541 -0.091178365
000160 75 79 3f 3c 86 3e 73 3d 69 32 7f 3d b1 b9 12 bd
       0.011686672 0.0593858 0.062303934 -0.03582162
000170 80 55 d3 3c b5 76 e7 bd b3 b5 a0 3d 1b c0 ee 3b
       0.025797606 -0.113019384 0.078471564 0.0072860844
000180 d9 75 d5 3d 4a f4 db bc d6 fb a4 3d 68 aa 39 3d
       0.10422868 -0.026849885 0.080558464 0.045328528
000190 08 86 f2 3c 7b 9b ac 3d 3b f9 d7 3d d5 99 f7 bd
       0.029604927 0.08428093 0.10545584 -0.12089888
0001a0 43 ad 7d 3d d3 78 53 bd 5d ae d5 bd 9e b1 67 3d
       0.061932813 -0.0516289 -0.10433648 0.056565873
0001b0 ad f3 ed bd c1 f9 91 3b 96 e2 b4 bc d1 01 af 3d
       -0.11618743 0.004454822 -0.0220807 0.08545268
0001c0 d4 cb 59 3d d2 b9 db 3c 12 be 76 37 1c b0 33 bb
       0.0531729 0.026822004 1.4706997e-05 -0.0027418202
0001d0 73 7b f0 3d fa 6d 37 3d 75 27 24 3c d4 2c 16 bc
       0.11742296 0.044782616 0.010019173 -0.009165961
0001e0 3e 41 03 3e dd 1a d6 bd 57 41 06 3e 4b a1 4a 3d
       0.12817857 -0.104543425 0.13110863 0.049470227
0001f0 85 4c e5 bc bd d8 01 3e a5 e0 df 3d 05 de dc bd
       -0.027990589 0.12680335 0.109315194 -0.10784534
000200 55 8b 4f 3d f3 24 2d bd 9a 1b 82 bd ec a9 07 bd
       0.050669987 -0.042271566 -0.06352921 -0.033121035
000210 27 8b 95 bd 76 d0 d4 bd 03 a9 81 3d 0e d6 96 bd
       -0.07301932 -0.10391323 0.063310646 -0.073650464
000220 a3 d6 2c 3d 6d 85 cf 3c a5 7f 03 3e 05 a3 e3 bd
       0.04219688 0.025332177 0.12841661 -0.11115078
000230 6d 3d 42 3c bd 6f 90 3d 2e cf e2 bd f7 b2 30 bc
       0.011855465 0.070525624 -0.11074673 -0.010784856
000240 ec c9 0c bd 3b 50 96 bd 3f 6e ca bc ae cc ef bd
       -0.034372255 -0.073395215 -0.024710773 -0.117089614
000250 24 e6 e4 bc cb 23 e0 bd bb 19 af 3d 1b 19 ce bd
       -0.02794177 -0.10944327 0.085498296 -0.10063382
000260 7b 49 9a bc 34 34 ce 3d 1f aa f8 3d 1f dd ab 3c
       -0.018833866 0.10068551 0.12141823 0.020979462
000270 91 ab fa 3d 2b 35 7f 3d e5 1c fa 3d d1 03 90 bb
       0.12239755 0.062306564 0.122125424 -0.004394986
000280 da 6e af bd d2 1e 81 bc 94 f2 5d bd a3 07 54 3d
       -0.08566065 -0.015761767 -0.05418642 0.051765095
000290 22 6a 72 3d f5 2a 9f 3d 93 5a f4 3c 29 95 e3 3c
       0.059183247 0.07771865 0.029828345 0.027781086
0002a0 61 81 03 3d fb 69 d2 3d f9 86 da 3c fb 27 1d 3d
       0.032105807 0.102741204 0.026675688 0.038368206
0002b0 d9 01 51 3d 24 60 3d 3d d9 9d d4 3d 1b b1 53 3c
       0.051027153 0.046234265 0.103816696 0.012920643
0002c0 75 a9 f0 ba c4 37 db bd e7 3e c5 bd 04 90 8f bd
       -0.0018361049 -0.10703996 -0.09631138 -0.07009891
0002d0 84 a0 aa bc d2 11 da 3d 2d bc 17 bc 0e ba 85 bd
       -0.020828493 0.1064793 -0.009261173 -0.06529628
0002e0 59 c8 3b 3d 63 f2 43 3d c6 87 8f bc 70 34 9c bd
       0.045845363 0.04783858 -0.017520797 -0.07627189
0002f0 3f 36 b6 3d 7d 70 04 3e 69 34 3d 3d 8a 19 a1 bd
       0.08897065 0.12933536 0.04619256 -0.07866199
000300 74 af c2 3d 12 b9 47 bd 36 31 a8 3d 31 a5 c0 bd
       0.09506121 -0.04876048 0.08212511 -0.09406508
000310 cf 66 9c 3c c8 3a 89 bd 26 cd 85 bc 95 6d f2 bc
       0.019091992 -0.06700665 -0.016333174 -0.029593268
000320 39 ec ce bd 1b c3 a6 3d 7c 23 4c 3d a5 13 d2 3c
       -0.1010365 0.08142682 0.049838528 0.025644133
000330 80 8c dc bd 67 ce 01 bd 38 b2 82 bd 4d 2a 74 bc
       -0.10768986 -0.03169098 -0.06381649 -0.014902663
000340 ce 80 ee 3d 4c ea 92 3d d1 86 b4 bd 12 48 00 be
       0.11645661 0.07173595 -0.08814777 -0.12527493
000350 95 a3 66 bd 09 2e 33 3d 7f c9 e3 bd 67 d2 d5 3d
       -0.056308348 0.043745074 -0.11122417 0.10440522
000360 d9 cc 86 3d d6 a2 a1 3d a9 7b c3 bd aa 93 df 3c
       0.0658204 0.078923866 -0.09545071 0.027292091
000370 51 9a 77 3c 41 6a 21 3c 38 e6 ad bd 01 7d a4 3d
       0.0151124755 0.009851993 -0.08491176 0.08031655
000380 15 03 62 bd c5 4d e3 3d 11 f9 5d 3d 29 90 7d bd
       -0.05517872 0.11098818 0.054192606 -0.06190506
000390 a6 a7 cb b9 83 99 9e 3d ec e7 99 bd 41 da 88 bd
       -0.00038844085 0.07744124 -0.07514939 -0.06682254
0003a0 aa aa f2 3d 70 71 c9 3d 80 cb 7b bd 11 93 69 bd
       0.11848958 0.098360896 -0.06147337 -0.05702502
0003b0 a8 bd 4a bc 05 c4 60 3d 75 3b f0 3d 76 43 96 bd
       -0.012374319 0.05487444 0.117300905 -0.07337086
0003c0 0b 78 60 bd 05 9a 85 bd 9b ee a1 3d e9 98 d7 3c
       -0.054801982 -0.065235175 0.079068385 0.02631803
0003d0 71 da de bb 2a f5 91 3d d3 5c 1c 3d 29 2c d4 3d
       -0.0068009426 0.071268395 0.03817446 0.103599854
0003e0 68 f4 95 3d 5f e1 c6 bd 21 e1 b9 bd c9 be 1b 3b
       0.073220074 -0.09710955 -0.09076143 0.002376484
0003f0 f3 a2 8e 3d 32 36 cb bd c8 ee f9 3d 4f b2 8f 3c
       0.06964674 -0.09922446 0.12203747 0.017541079

conv3.bias f4 [256]
000000 4c e0 4b 3d 70 44 44 3d b8 90 76 3d 32 9c 79 bd
       0.049774453 0.04791683 0.06019661 -0.060939975
000010 48 55 3c bd ef 0d 40 3d c3 d3 5d bd 30 f4 67 3d
       -0.045979768 0.046888288 -0.05415703 0.05662936
000020 20 0b c9 bd 60 17 5c bd 5d 7a 7a bd 96 19 9f 3d
       -0.09816575 -0.05373323 -0.06115185 0.07768552
000030 f6 af ce bd 41 b6 52 bd 29 49 ac 3d d0 21 4c 3d
       -0.10092156 -0.051443342 0.08412392 0.049836934
000040 32 8e 87 3d a5 fe 90 bd 73 92 58 bd c6 ca e4 3d
       0.066189185 -0.070798196 -0.05287404 0.111714885
000050 16 3a 4e bd 22 2f 8d bd 5a 60 4a bd 7c 1c 8a bd
       -0.050348364 -0.068937555 -0.049408294 -0.06743714
000060 2d a0 59 bd ad 15 c3 3d f1 94 e4 bd 26 1c 80 3d
       -0.05313127 0.09525619 -0.11161221 0.06255369
000070 27 e2 41 3d 94 a7 48 3d 82 c1 a2 bd 31 f0 e2 3d
       0.047334816 0.04898794 -0.07947065 0.11080969
000080 ef 78 a7 bd 8b 5d 3a bd 8a 3d 8e 3d 67 78 b1 3d
       -0.08177363 -0.045499366 0.069453314 0.08665543
000090 5d 2b 74 bd 1d c9 4c 3d a7 14 5a 3d 2a a0 69 3d
       -0.059611667 0.049996484 0.05324235 0.05703751
0000a0 6a f8 8a bd 8e 79 8b 3d e0 3f 9c 3d 86 42 9f 3d
       -0.067856625 0.06810294 0.07629371 0.0777636
0000b0 a9 0f 76 3d ed 6a af bd ed 75 4b bd 54 8f 68 3d
       0.06007353 -0.08565316 -0.04967301 0.056777313
0000c0 24 b0 51 3d 02 16 da bd f3 77 6c bd 50 73 90 3d
       0.05119337 -0.10648729 -0.05773158 0.07053244
0000d0 db ec 4b bd 8f 94 6a bd d4 6e 71 bd d6 bc 81 bd
       -0.04978643 -0.057270583 -0.058943585 -0.06334846
0000e0 16 cf a9 3d c8 32 81 bd 73 98 64 bd de 57 8b bd
       0.08291452 -0.06308514 -0.05580945 -0.06803869
0000f0 b5 27 c2 bd 3f 28 50 3d 94 9a 51 bd 4c d8 86 3d
       -0.0948023 0.05081963 -0.051172808 0.06584224
000100 a6 42 55 3d 4b c1 37 bd 9e 69 89 3d ab bf d2 3d
       0.052065514 -0.044862073 0.06709598 0.10290464
000110 0f 49 9f bd 45 0f c1 bd 1b ac be 3d 89 a7 52 bd
       -0.07777607 -0.094267406 0.0931017 -0.051429305
000120 3e 13 86 3d 65 6d 35 bd e8 96 84 bd 51 9e 89 bd
       0.06546639 -0.04429378 -0.064740956 -0.067196496
000130 f8 2c 41 bd 29 fb 74 3d 4c af 3a 3d 36 f0 84 bd
       -0.047162026 0.059809837 0.045577332 -0.06491129
000140 16 bf a8 3d 76 25 86 bd fd fd a4 bd 7c b6 d5 3d
       0.08239572 -0.06550114 -0.08056257 0.10435197
000150 3b 9c 6c 3d f6 f4 a3 3d 53 76 d3 3d a9 66 7b 3d
       0.05776618 0.08005707 0.10325303 0.0613772
000160 b9 44 67 bd 9c 7a a0 3d 2b 95 52 bd 22 6a 95 bd
       -0.056462023 0.07835886 -0.05141179 -0.07295634
000170 63 88 a1 bd ec b3 92 bd 97 32 cd bd 8e a0 85 bd
       -0.07887342 -0.071632236 -0.10019415 -0.06524764
000180 c4 2c 41 3d 7f ae 87 3d 71 65 9e bd 2a 4e ae 3d
       0.047161832 0.06625079 -0.07734192 0.08511002
000190 cb da e3 3d 9e 29 4e 3d 9c 65 84 3d c7 00 49 bd
       0.11125716 0.050332658 0.06464693 -0.049073007
0001a0 b9 a9 89 bd 1d 42 7a 3d d9 8a c1 3d 34 dd 42 bd
       -0.06721825 0.061098207 0.09450311 -0.047574237
0001b0 35 cd 9a 3d 54 7d 9c 3d ac e0 cf 3d 24 0a 61 3d
       0.075586714 0.07641092 0.10150275 0.05494131
0001c0 f6 a4 88 3d 2e cf 63 bd de 18 d2 3d 84 28 88 3d
       0.06672089 -0.055617504 0.10258649 0.06648353
0001d0 1f be 4c 3d 7c bb b1 bd 83 bf 63 bd 61 8d 89 bd
       0.049986 -0.08678338 -0.05560256 -0.06716419
0001e0 cc f0 5f bd b6 eb 43 3d 73 54 9d bd 04 59 5a bd
       -0.054673 0.047832213 -0.07682123 -0.05330755
0001f0 1d 49 7f 3d 12 d2 76 bd 8a a3 9c bd d5 69 4c bd
       0.062325586 -0.060258932 -0.0764838 -0.049905617
000200 25 bf 83 bd 33 f7 88 bd 93 32 ab bd ca 9e 69 3d
       -0.06432942 -0.066877745 -0.08359256 0.0570362
000210 f8 5a 72 3d da a0 ed bd cb b2 a1 3d cd ee 3c 3d
       0.059168786 -0.116029456 0.0789543 0.046126176
000220 b3 06 e9 3d ad 58 52 3d bc d8 7f 3d ab 57 de bd
       0.11378231 0.0513541 0.062462553 -0.10856565
000230 09 3e 81 3d 09 bb 87 bd ac d1 a3 bd 07 dc 9e 3d
       0.063106604 -0.06627471 -0.07998976 0.07756811
000240 42 9a 65 bd 12 1f 8d 3d fd d5 42 bd 5a 9a 89 bd
       -0.056055315 0.06890692 -0.047567356 -0.06718893
000250 33 4c a7 bd 90 e8 5f bd cb 21 da bd be d4 a2 3d
       -0.08168831 -0.05466515 -0.10650977 0.079507336
000260 ad 4b b0 bd 6a 68 64 bd 1c fd c4 3d da 54 55 3d
       -0.08608184 -0.05576364 0.09618589 0.052082874
000270 4d 62 4b bd 84 df 8e 3d c0 e3 c5 3d 20 46 80 3d
       -0.049654294 0.06976226 0.096625805 0.06263375
000280 5d 86 90 bd 8e 9a 74 bd af 2d 79 3d 35 ef 44 3d
       -0.07056878 -0.059717707 0.060834583 0.048079688
000290 58 d2 8a 3d d5 2e 71 bd f2 5b 9c bd 85 f3 2c 3d
       0.06778401 -0.058882553 -0.07634725 0.042224426
0002a0 90 f3 51 3d 0e b1 66 3d 9c 46 82 bd a6 f3 e2 bd
       0.05125767 0.056321196 -0.06361124 -0.110816285
0002b0 b4 e4 45 3d b5 ab 60 3d 48 1b 5b 3d 57 bc ce bd
       0.04831381 0.054851253 0.053492814 -0.10094517
0002c0 72 14 8b bd 87 2c 5c 3d fa e0 9a 3d 83 b7 92 bd
       -0.06791009 0.053753402 0.07562442 -0.07163908
0002d0 d4 35 80 bd e7 16 be 3d 04 54 af 3d 77 e8 8f bd
       -0.06260267 0.09281712 0.085609466 -0.07026761
0002e0 15 59 83 bd 11 14 9e bd ec 14 ed 3d f7 04 6c 3d
       -0.064134754 -0.07718671 0.11576256 0.057621922
0002f0 9b f0 a7 bd 68 cb 39 bd c4 34 79 bd 37 7f 54 3d
       -0.08200189 -0.04536 -0.060841337 0.051879134
000300 0e a1 89 bd e6 cf 42 bd d2 52 8c 3d 8d ad 94 3d
       -0.06720172 -0.04756155 0.06851734 0.07259665
000310 b4 dd 77 bd 7c c0 9f bd 3e 03 77 3d a8 c7 66 bd
       -0.060514167 -0.07800385 0.060305826 -0.05634275
000320 78 5a 5a bd ad 4a d4 3d 12 92 b9 3d 65 95 8e 3d
       -0.053308934 0.10365806 0.09061064 0.069620885
000330 16 94 ad 3d 05 52 d7 bd cd 26 77 bd 64 ff 5c bd
       0.08475511 -0.10513691 -0.060339738 -0.053954497
000340 48 ef 4d 3d ed c2 ad 3d 47 60 4a bd 5e 12 8e 3d
       0.050277025 0.08484445 -0.049408223 0.06937097
000350 59 21 96 3d 86 b1 e8 3d d2 16 74 bd 5a aa 88 bd
       0.07330579 0.11361985 -0.059592076 -0.06673117
000360 a8 82 c2 bd eb f7 da 3d 3f 63 5d bd 18 0d 76 3d
       -0.09497577 0.10691818 -0.054049727 0.06007108
000370 e9 13 52 3d 66 11 90 3d 50 41 af bd e4 f1 5d bd
       0.05128852 0.070345685 -0.08557379 -0.054185763
000380 78 39 7d bd 84 0f 59 3d c4 7d 3d 3d a8 02 66 3d
       -0.061822385 0.052993312 0.046262518 0.056154877
000390 1b 6f a2 3d be 28 66 bd ea b5 6e bd b4 c0 55 bd
       0.07931348 -0.0561912 -0.058278956 -0.05218573
0003a0 6c b9 e0 3d 84 c3 3d 3d 6d 51 73 3d ca 4c 4b bd
       0.109728664 0.046329036 0.059403826 -0.04963378
0003b0 64 3b 8b 3d a8 5f 6e bd dd 8a 52 3d 63 6f ea 3d
       0.06798437 -0.058196694 0.05140196 0.114470266
0003c0 1d 37 47 3d 12 cc 86 3d c7 e4 cc bd 2a 21 ec 3d
       0.048636544 0.06581892 -0.10004573 0.11529763
0003d0 46 32 aa 3d 69 fd 64 3d 00 c1 74 3d 1e f1 82 bd
       0.0831037 0.055905733 0.05975437 -0.06393646
0003e0 15 28 3e 3d be ed 82 3d b4 2f 8a 3d fc f6 8c 3d
       0.046424944 0.06393002 0.0674738 0.06883046
0003f0 36 e8 63 3d a7 bf 80 bd 5c a5 a5 3d af b8 7a bd
       0.055641375 -0.06286555 0.080881804 -0.061211284

conv3.lin.weight f4 [256, 128]
000000 58 5a c5 3d 3b 0c f8 3d 37 5d 8d bc 1f f2 03 3d
       0.09636372 0.12111708 -0.017256362 0.032213327
000010 bb da b6 3c d3 b9 d6 3d 9a ba ca bd e3 06 01 3d
       0.022321096 0.10484662 -0.09898873 0.03150071
000020 9b 97 8e 3d ea 55 b6 3d 48 52 90 3d 5f 29 03 bd
       0.0696251 0.089031056 0.07046944 -0.032021876
000030 63 e0 c8 3d 1a 10 e1 3c ec 58 17 be 88 be 8a bd
       0.09808423 0.027473498 -0.14780015 -0.06774622
000040 a8 c1 6b 3d 5c 0e 97 bd ed 9d 89 3d 4f bf 7c 3d
       0.057557732 -0.07375786 0.06719575 0.061705884
000050 2e fa ac bc f7 08 d1 3d 64 2c d1 3d 7e 95 48 3c
       -0.021115389 0.10206788 0.10213545 0.012242673
000060 35 0d c7 bc b6 aa 18 bd fe 62 0f be 73 5d 76 3d
       -0.02429829 -0.037272178 -0.14002606 0.060147714
000070 67 bb fe bd cb dd ae 3d c5 ca 7c bd d9 83 69 bd
       -0.12438088 0.085383974 -0.061716814 -0.057010505
000080 a7 d5 d5 bd 82 d4 c1 bd 5b 64 02 bd 3c 7d 9f 3d
       -0.104411416 -0.09464361 -0.031833988 0.077875584
000090 68 0d 01 3e 2e 3a dd bd 84 60 e1 3c 0e 30 fc 3d
       0.1260277 -0.108021125 0.027511843 0.12313853
0000a0 80 ea 02 3e 9e 3a 57 3d 26 69 8b 3d e6 94 39 3c
       0.12784767 0.052546136 0.06807165 0.011327004
0000b0 39 fd 5f 3d 1b 03 f3 3d 92 a3 70 3d a9 a1 cd bd
       0.05468485 0.11865827 0.058749743 -0.100406
0000c0 cc 9a 10 3d 1a 7e 1f bd dc a7 d2 bc d7 f6 53 bd
       0.035303876 -0.03893862 -0.025714807 -0.051749077
0000d0 9d 0e cc bc 27 a4 20 be 70 4a 7a 3d 52 77 68 3d
       -0.024909312 -0.15687619 0.061106145 0.056754418
0000e0 11 81 61 bd 8f 20 99 3d 6e ff 0e 3b 55 c0 61 3d
       -0.055054728 0.07476913 0.0021819728 0.055115063
0000f0 18 cc ea bd c7 c4 4d 3d 19 9b 04 be 68 0a 17 3d
       -0.11464709 0.05023649 -0.1294979 0.03687516
000100 c4 99 83 bd 78 59 f1 3c ed 0c ae 3c 2d 10 05 3d
       -0.06425813 0.029461607 0.021246398 0.03248613
000110 30 9c 7e bd 68 ea bc bd bf fd d5 bd 79 e1 fb bd
       -0.06216067 -0.09224397 -0.10448789 -0.12298865
000120 9a 9f 90 3c 13 47 bd bd 14 24 f3 bd 27 d5 b9 3d
       0.017654229 -0.09242072 -0.11872116 0.09073859
000130 36 81 e3 bd 06 85 4a bd bb 49 eb bd dd 9e 41 3d
       -0.111086294 -0.049443267 -0.11488672 0.047270644
000140 5c 95 d2 3d 2a 40 cf bb ef 93 b3 3d 3d c6 54 3d
       0.10282394 -0.0063247876 0.087684505 0.051946867
000150 57 77 e5 3d c8 1c b0 3c ad 97 f8 3d 1d c6 fe 3c
       0.11204403 0.021498099 0.12138305 0.031100327
000160 08 dd 0c bd 3d a5 d4 bd f0 de a9 bd 58 0e 78 3c
       -0.03439048 -0.10383079 -0.08294475 0.015140139
000170 47 e7 d0 bd 4a 58 d9 bc 06 cd 04 3e 9d 3f a5 3d
       -0.10200363 -0.026531357 0.12968835 0.08068774
000180 8a a8 ee 3d 67 53 d2 3d 28 f0 e6 bd 38 b4 29 bd
       0.1165324 0.10269814 -0.11276275 -0.041431636
000190 62 1c 46 bc ec 97 ea bb 31 fa 1b be 07 99 af 3d
       -0.012091728 -0.007159224 -0.15232159 0.085741095
0001a0 25 a3 3c bc b2 6b df 3d 3a 96 14 bd c6 31 5c bc
       -0.011513506 0.10909213 -0.03627608 -0.013439601
0001b0 0f 4e aa 3d 15 da 8c 3d eb eb 80 bd 23 9c b2 bc
       0.0831567 0.06877533 -0.06294998 -0.021802967
0001c0 a7 54 bd 3d 18 73 9d bd d6 2b 9e 3d 7d f3 6e bd
       0.09244662 -0.07687968 0.07723205 -0.058337677
0001d0 71 b0 a2 3c 38 78 ab 3d 52 ce ad 3c 37 2a d3 bd
       0.019859524 0.08372539 0.021216545 -0.10310786
0001e0 60 53 de 3d e2 0c bb bd e5 32 86 3d 23 b6 ae bc
       0.10855746 -0.091333166 0.06552676 -0.021327084
0001f0 6a 2e 4a bd 31 8d df 3d ed c1 e3 bd b8 b0 85 3c
       -0.04936067 0.10915602 -0.11120973 0.016319618
000200 ff 00 eb 3d a9 b0 d7 3d 6c 24 85 bd 79 4b 2e 3d
       0.11474799 0.10531742 -0.065010875 0.042552445
000210 3c 6f 50 3d 9c 1f e2 3d 49 58 91 3d 72 a4 6f 3d
       0.05088733 0.11041185 0.07096917 0.058506437
000220 8b dc f8 bd 15 6e a7 bd 23 8e f7 3b db df 1e 3d
       -0.1215144 -0.08175293 0.007554786 0.038787704
000230 6b d5 ab bd bf 31 bb 3c 74 8d 85 bd 81 25 9a bd
       -0.083903156 0.02285087 -0.06521121 -0.075266846
000240 14 83 de bd 33 24 b5 bc 31 60 aa bd 56 28 48 3d
       -0.10864845 -0.022111988 -0.08319128 0.048866592
000250 fa 45 eb bd b7 b9 e6 3d 06 d5 b5 bb 3d a9 16 bd
       -0.11487956 0.11265891 -0.005549076 -0.036782492
000260 89 20 82 bd 77 98 d7 3d bd 46 16 bd 43 90 8e 3d
       -0.06353862 0.10527127 -0.036688555 0.069611095
000270 ca 6a 11 3d 12 52 93 bd e2 9e 13 be ab d1 07 3d
       0.035502233 -0.07193388 -0.14416078 0.03315894
000280 51 1c 99 3d e9 b6 29 bd 65 c3 5c bd f7 ad 15 3d
       0.07476104 -0.041434202 -0.05389728 0.03654286
000290 62 97 91 3d 5d 90 8b bd eb 5c 2c bd 17 6a 5f bd
       0.07108952 -0.068146445 -0.0420808 -0.054544535
0002a0 2a c6 91 bd 61 1d 80 3d 07 5a 95 bd 06 f1 06 bc
       -0.07117875 0.062556036 -0.07292562 -0.008236175
0002b0 35 cb ed 3d 9e 50 1e bd 6d 27 d1 3d aa 23 9d bd
       0.11611024 -0.0386511 0.10212598 -0.07672818
0002c0 48 de e5 3d 2b fb 2b bd 19 39 c5 bb 11 31 43 bd
       0.112240374 -0.04198758 -0.0060187695 -0.047654215
0002d0 14 d6 7e 3d be 94 37 be 8e ef 4e bb 36 b2 ac 3d
       0.06221588 -0.17927834 -0.0031575891 0.084324285
0002e0 8a b8 d1 bd 32 36 e0 3d db de 7f bd f3 1f 72 bc
       -0.10240276 0.10947837 -0.06246839 -0.014778125
0002f0 3f 3d 6c bb e8 f2 8d 3d ce d0 22 3c 88 ce dd bc
       -0.0036047248 0.06931096 0.009937478 -0.02707602
000300 fe e3 56 3d 79 a1 0f 3d 75 1f f1 3d c8 69 ca 3d
       0.052463524 0.0350661 0.11773578 0.098834574
000310 ad 55 52 3d 5a b5 83 bd ae 5d f4 3d 2f 6b 86 bd
       0.051351238 -0.064310744 0.119319305 -0.065634124
000320 6b ee db bd 3e 42 c7 bd 70 38 30 bd 76 84 81 bd
       -0.10738834 -0.097294316 -0.043022573 -0.06324093
000330 3b 23 3f bd d9 cb 9c bd 07 89 de 3d ab 33 e5 3d
       -0.046664458 -0.07656068 0.1086598 0.111914955
000340 87 b1 1b bc 11 bb 4f 3d d2 43 46 bd 28 7a 69 bd
       -0.009502775 0.05071551 -0.048404522 -0.057001263
000350 b3 ea a4 3d 04 db c9 3d 11 f5 5c bd f3 95 0e bd
       0.08052578 0.09856227 -0.05394465 -0.03481097
000360 d3 22 60 3c 78 2a ca bd 06 18 e8 bd 73 da 36 bd
       0.013680178 -0.098713815 -0.11332707 -0.044641923
000370 e1 c8 8f 3d 25 d2 81 3d 28 14 de 3b aa f2 a9 3d
       0.070207365 0.0633891 0.006777305 0.082982376
000380 9b a1 0c bd d7 4c 69 bb ff 89 3e be 63 ce e6 3d
       -0.034333806 -0.0035598779 -0.18607329 0.11269834
000390 b0 64 31 bc 2d f4 cf 3d 63 5b 7c bc 0a 09 ef 3c
       -0.010827228 0.10153995 -0.015402648 0.029179115
0003a0 52 d3 b5 3c 81 d6 47 3a 42 f1 93 3c 01 3a f2 bc
       0.022195492 0.0007623211 0.018059377 -0.029568674
0003b0 64 5d a5 3d 1c 48 fb 3b 07 ae bc bd 0f c1 d7 3c
       0.080744535 0.007668508 -0.092128806 0.026337175
0003c0 29 1e 59 3d c7 ce 5b bd 16 e8 ac bc 36 2a 3c 3d
       0.05300728 -0.053663995 -0.021106761 0.045938693
0003d0 44 55 8a 3d 76 b3 8b 3c f5 9f b4 bd e5 c1 41 bd
       0.067545444 0.017053347 -0.08819572 -0.047304053
0003e0 37 13 d4 bd 8e 82 98 bd 92 e2 1e 3d cf 34 80 bc
       -0.103552274 -0.07446776 0.038790293 -0.015650181
0003f0 df 3c 47 bd ad aa cb 3c ce 6a 94 3d 35 7e 76 3d
       -0.048642036 0.024861658 0.07246934 0.060178954
